helmholtz/params_SA_pinns.pth (torch, 208123 bytes, 13 tensors)

lin1.weight f4 [100, 2]
-0.13289186 0.15225855 0.025956921 -0.09796489 0.186088 -0.061739225 0.042183213 -0.37029144
0.00016876707 -0.063249186 -0.15985921 0.051252745 0.23343608 -0.27833518 -0.0070081363 0.04875395
0.1320395 0.004538761 -0.04758784 0.020200301 -0.0815133 -0.08294792 0.05223696 0.117194384
-0.12021929 -0.07494405 -0.12030828 0.20130482 0.2136723 -0.16954468 0.053772636 -0.0867864
0.21458404 -0.122987926 0.11516968 0.06665601 0.15541425 -0.071818635 -0.3712035 0.02342488
0.055846915 0.07777369 -0.14620085 0.118937984 -0.097802185 -0.046648934 0.1546314 -0.045390107
-0.05023897 0.15806696 0.028145889 0.20718697 0.103478804 0.09627637 -0.19550574 -0.30275023
0.1340286 0.119845696 -0.062715605 0.09811436 0.16571519 0.3290432 -0.09912484 0.22956912
-0.11331395 -0.10856761 0.052205652 0.10591779 0.26469582 -0.14817195 -0.068897024 0.045865335
0.18787584 -0.18443432 -0.007947855 0.20184352 0.120380275 -0.14934334 -0.15437044 0.14817137
-0.0653587 -0.060279626 0.076918036 -0.07509932 -0.0168383 0.043367904 0.018945247 -0.1575136
0.26081198 -0.14980046 -0.008868092 -0.06201656 -0.10136547 0.16291669 0.13754506 -0.1162066
0.033422563 -0.10346081 0.055737108 0.007975092 -0.11419908 0.16786224 -0.0017261277 -0.06159394
-0.099124394 -0.2526227 -0.04589044 0.09069866 0.14977325 0.070462786 0.031993162 -0.053606845
-0.06331587 -0.02392293 0.091126055 0.1334506 -0.104883805 -0.23957855 0.026134884 0.01377298
-0.27645406 -0.17952892 -0.09099164 0.04211862 0.11646896 -0.006630749 -0.114140205 -0.19266213
-0.027690122 0.012374485 0.013593672 -0.013789193 -0.30140975 0.14082672 0.061581112 -0.03917141
-0.16856422 -0.12516877 0.022097811 -0.20623288 -0.023580465 -0.16056633 -0.24927078 -0.019160556
0.15716556 -0.0929297 -0.06546313 0.2372628 0.03893075 0.033491705 0.06909201 0.079373114
-0.23436883 0.03599427 -0.062402986 0.052763447 -0.23393555 0.12511474 -0.085638516 -0.13208245
-0.00041217668 -0.14478233 -0.16326389 -0.12516107 -0.394215 -0.06733469 0.025678972 -0.1971653
-0.043865584 0.06004456 -0.079390116 -0.027331363 0.009867493 0.2724786 -0.04253899 0.074512005
-0.0689642 0.00839179 0.078245215 0.1713057 -0.20145166 0.041850697 -0.11635217 -0.040109962
-0.047321405 0.039477985 0.12528722 0.09021625 -0.23292218 -0.11263715 -0.05622275 -0.06341643
-0.29641885 -0.07757354 0.044004086 0.072291486 -0.11581478 -0.17654559 -0.23197928 -0.016368512
00000000: ce14 08be aae9 1b3e 9ca3 d43c d1a1 c8bd
00000010: da8d 3e3e 45e2 7cbd 4ec8 2c3d d796 bdbe
00000020: 11f7 3039 ca88 81bd 22b2 23be 66ee 513d
00000030: de09 6f3e f381 8ebe 82a4 e5bb 39b2 473d
00000040: 5d35 073e e3b9 943b 78eb 42bd 1a7b a53c
00000050: 72f0 a6bd 99e0 a9bd 6cf6 553d 9c03 f03d
00000060: 8835 f6bd 447c 99bd 3064 f6bd da22 4e3e
00000070: e9cc 5a3e 1f9d 2dbe b240 5c3d 11bd b1bd
00000080: ebbb 5b3e 18e1 fbbd 15de eb3d f282 883d
00000090: ea24 1f3e a615 93bd 630e bebe 89e5 bf3c
000000a0: bcbf 643d d047 9f3d adb5 15be c295 f33d
000000b0: 834c c8bd f412 3fbd b257 1e3e faea 39bd
000000c0: 61c7 4dbd 4edc 213e 3592 e63c d228 543e
000000d0: b2ec d33d 8c2c c53d a832 48be 1402 9bbe
000000e0: cb3e 093e a971 f53d 0a71 80bd 2ef0 c83d
000000f0: 3eb1 293e 5a78 a83e f701 cbbd 2b14 6b3e
00000100: 2511 e8bd b258 debd 98d5 553d 6deb d83d
00000110: 3686 873e 63ba 17be e219 8dbd 4add 3b3d
00000120: 8662 403e 5adc 3cbe b837 02bc 11b0 4e3e
00000130: ef89 f63d 76ed 18be 4913 1ebe 3cba 173e
00000140: c8da 85bd c5e7 76bd 3487 9d3d accd 99bd
00000150: 79f0 89bc 8ba2 313d 1033 9b3c 3f4b 21be
00000160: 2689 853e 4b65 19be 794b 11bc 1405 7ebd
00000170: b398 cfbd a2d3 263e 9dd8 0c3e bafd edbd
00000180: 19e6 083d 43e3 d3bd 984c 643d f6a9 023c
00000190: 35e1 e9bd 14e4 2b3e 3c3f e2ba ed49 7cbd
000001a0: bb01 cbbd c357 81be 9df7 3bbd 38c0 b93d
000001b0: 295e 193e cb4e 903d 430b 033d da92 5bbd
000001c0: c0ab 81bd 05fa c3bc 4ca0 ba3d 46a7 083e
000001d0: 52cd d6bd 1454 75be d318 d63c 11a8 613c
000001e0: 638b 8dbe 6ed6 37be d359 babd 9384 2c3d
000001f0: 4787 ee3d c146 d9bb 57c2 e9bd 3949 45be
00000200: 65d6 e2bc 5abe 4a3c feb7 5e3c 11ec 61bc
00000210: 6152 9abe e134 103e 7a3c 7c3d 3372 20bd
00000220: 199c 2cbe 3e2c 00be 7806 b53c b62e 53be
00000230: d22b c1bc 806b 24be d740 7fbe 99f6 9cbc
00000240: 02f0 203e ed51 bebd 8911 86bd 05f5 723e
00000250: da75 1f3d 992e 093d 1d80 8d3d 5f8e a23d
00000260: 62fe 6fbe ba6e 133d 469a 7fbd 7c1e 583d
00000270: cd8c 6fbe 141e 003e 3f63 afbd 9f40 07be
00000280: 6b19 d8b9 d241 14be a62e 27be 392a 00be
00000290: 8cd6 c9be c5e6 89bd b55c d23c b3e5 49be
000002a0: 66ac 33bd 49f1 753d 4997 a2bd 06e6 dfbc
000002b0: 44ab 213c 5182 8b3e 5d3d 2ebd c099 983d
000002c0: 1a3d 8dbd b87d 093c 073f a03d c36a 2f3e
000002d0: 5849 4ebe a36b 2b3d 0c4a eebd 584a 24bd
000002e0: 17d4 41bd abb3 213d 4b4b 003e 4cc3 b83d
000002f0: 2783 6ebe 4eae e6bd d449 66bd 79e0 81bd
00000300: 36c4 97be e0de 9ebd a13d 343d 8f0d 943d
00000310: 4d30 edbd 5ec8 34be fa8b 6dbe 4217 86bc

lin1.bias f4 [100]
0.49451643 -0.43640807 0.39801595 0.2352014 0.5181201 0.052811727 0.37319362 0.6559805
-0.49384865 0.38856766 0.14970976 0.07122419 -0.13567959 -0.12585543 0.07238284 0.2032714
-0.66080326 0.054831896 -0.6734335 -0.06879412 -0.59455633 0.0916696 0.2834297 0.080852754
0.25275797 0.44936934 -0.0031581062 0.5213175 -0.3189081 -0.0901727 0.20156768 -0.62045705
-0.10998954 0.564852 -0.1844784 -0.017813575 0.03766768 -0.36239627 0.1534165 0.24117012
0.3549737 -0.5678053 -0.23331034 -0.49907088 -0.39503986 0.34739605 0.5688929 -0.38403508
-0.020526128 -0.15747838 0.11939056 0.15936832 0.020660723 0.28314304 0.31112325 0.5278078
0.23503095 -0.3296003 0.63354594 0.44489825 -0.26951492 0.2944964 -0.038936578 -0.4337447
0.25934866 -0.24557997 0.22020791 -0.6097647 0.005604383 -0.37747136 -0.050157595 -0.025424317
-0.27211115 0.33023378 0.04239806 -0.26493704 0.44697884 0.35015747 0.056452643 -0.36282533
-0.4214434 -0.6137377 -0.07386557 0.67788 0.49628833 0.15699735 -0.014492726 -0.66380113
-0.5620246 0.37074468 0.28588256 -0.55893916 -0.19393641 -0.45367232 0.11498021 -0.2451262
0.42460614 0.6167937 0.63280755 -0.3795706
00000000: 4231 fd3e e170 dfbe bfc8 cb3e a3d8 703e
00000010: 85a3 043f 1c51 583d 3c13 bf3e 57ee 273f
00000020: bbd9 fcbe 57f2 c63e 844d 193e fddd 913d
00000030: 97ef 0abe 3fe0 00be 743d 943d 6126 503e
00000040: 672a 29bf 6997 603d 2366 2cbf eee3 8cbd
00000050: d834 18bf 45bd bb3d b31d 913e 2196 a53d
00000060: 7e69 813e bd13 e63e 3bf8 4ebb 1075 053f
00000070: ec47 a3be 77ac b8bd c267 4e3e 46d6 1ebf
00000080: 3242 e1bd 249a 103f e8e7 3cbe c6ed 91bc
00000090: 6d49 1a3d 018c b9be 3719 1d3e 4df5 763e
000000a0: 1dbf b53e b05b 11bf e8e8 6ebe 3886 ffbe
000000b0: aa42 cabe e5dd b13e f7a2 113f 3fa0 c4be
000000c0: 6926 a8bc 0342 21be 0a83 f43d 7331 233e
000000d0: ad40 a93c 20f8 903e 8c4b 9f3e 691e 073f
000000e0: f4ab 703e 5fc1 a8be 1130 223f b4c9 e33e
000000f0: dcfd 89be 3bc8 963e f67b 1fbd c913 debe
00000100: 59c9 843e 5179 7bbe 2f7e 613e 8a19 1cbf
00000110: f9a4 b73b ed43 c1be 0d72 4dbd a846 d0bc
00000120: 2752 8bbe 6714 a93e 97a9 2d3d d4a5 87be
00000130: 69da e43e d747 b33e e33a 673d 3ec4 b9be
00000140: 6ec7 d7be ea1d 1dbf d546 97bd 8b89 2d3f
00000150: 8119 fe3e eac3 203e e672 6dbc dfee 29bf
00000160: d8e0 0fbf 3fd2 bd3e 335f 923e a316 0fbf
00000170: 4497 46be bd47 e8be bf7a eb3d 5d02 7bbe
00000180: fa65 d93e 31e6 1d3f adff 213f 1457 c2be

lin2.weight f4 [100, 100]
0.06765609 -0.05875323 -0.22228885 -0.09881416 -0.023890136 -0.12848897 0.07746075 0.034718998
0.05199738 -0.022426793 0.05707794 0.055804666 -0.037160873 0.059214473 0.02711128 -0.052570503
-0.12239497 -0.051088706 -0.06706793 -0.033998538 0.0266181 -0.08011944 -0.009832273 0.045766164
-0.078449905 0.023113675 0.02114193 -0.07873854 0.047617316 -0.14305246 -0.030032538 -0.14769869
0.020076148 0.14926144 -0.072914 0.14344901 0.059573244 0.110862315 -0.029834522 -0.10212985
0.11276605 0.0488776 0.09049587 -0.17376575 0.00781488 0.072999425 0.056047086 0.03947639
-0.08506206 -0.18554616 0.017742286 0.038802743 0.077951096 0.04842005 0.09645312 0.013069806
-0.012615315 0.05000708 -0.055410836 -0.14146526 -0.05685595 -0.08374824 0.1327567 0.022890804
-0.008718991 0.11787836 0.094311 0.124100514 0.05457953 -0.056989226 -0.10966807 0.043031406
0.030567931 0.04079981 0.11266831 0.07878919 -0.05791331 0.0033766932 0.041253835 -0.06653485
0.13688886 0.111381195 -0.0040479572 -0.0057126246 -0.121109374 -0.03185114 -0.034155875 0.041012123
0.080536015 0.039155487 0.13571501 -0.0153295575 0.12369471 -0.002754771 0.007475013 0.0108849285
-0.1028469 -0.04555807 -0.053196535 -0.0545079 -0.15584643 -0.022953281 -0.07077342 -0.035644013
0.07919412 -0.008658818 0.11522155 -0.028911421 -0.06848841 -0.069285125 0.0007874567 -0.13731813
0.07596891 0.018542735 -0.043861553 0.027672656 -0.00950915 -0.1271761 -0.10600413 -0.13225256
0.22462529 -0.021446161 0.16253422 -0.21020366 0.21701054 -0.02228248 -0.020813743 0.02426369
-0.017848784 -0.0847987 -0.17480937 0.20036657 -0.023246719 -0.14732641 -0.04782417 0.23224327
0.10960693 0.0154056335 -0.10598515 -0.10176887 -0.0023282305 -0.08176461 -0.057784982 -0.044850145
-0.054706164 0.026940558 -0.11461576 0.038298056 0.0063276296 0.009752846 -0.0355722 0.03939201
0.027890267 0.049347978 -0.023822907 0.022165313 0.012690252 -0.19400999 -0.07382166 -0.07079416
0.021195082 -0.021538336 -0.023785552 0.14310761 -0.17149138 -0.008712637 0.00710852 -0.091004536
-0.07666433 -0.07833231 -0.010134354 -0.011088243 0.07465746 -0.017175365 0.034728047 0.17694663
-0.0135834785 -0.031901862 0.037132617 -0.16310686 0.027742734 0.008563514 -0.09040957 -0.18059233
-0.0050369636 0.15711749 0.0045025297 0.16440526 0.16127394 0.09054605 0.066782884 0.03645317
-0.026620032 -0.025752999 -0.15430854 -0.10332581 0.15146527 -0.17524399 -0.17041738 0.033107985
0.0059608025 -0.060571756 -0.047538076 -0.02814964 0.0069259037 0.16960248 0.06487045 -0.088262975
0.01188383 -0.08445479 0.016036939 0.049518395 0.02434066 -0.083508395 0.056072768 0.044570662
0.006888182 0.080221236 -0.17490377 -0.105202176 0.06184381 0.105846554 -0.045628194 -0.0121707395
-0.03435853 0.09646887 0.013221037 0.020430539 0.0050809938 -0.10442957 0.046607606 -0.033362154
-0.025754971 -0.11901723 0.13332598 -0.0076992074 -0.026621614 -0.07917638 0.024334116 -0.06797892
-0.043761127 0.12907831 -0.20494343 -0.005637712 0.001162291 0.1957142 0.011864542 -0.04248933
-0.020593334 0.16539802 0.043048795 0.22896172 0.025287522 0.05534605 0.049896795 -0.01309948
00000000: 478f 8a3d 3aa7 70bd b09f 63be 145f cabd
00000010: 3fb5 c3bc 9d92 03be bea3 9e3d 8235 0e3d
00000020: 34fb 543d 65b8 b7bc 8fca 693d 6f93 643d
00000030: 0036 18bd e08a 723d 7a18 de3c 2b54 57bd
00000040: 37aa fabd 6442 51bd e95a 89bd 0d42 0bbd
00000050: 340e da3c a915 a4bd 8b17 21bc 4d75 3b3d
00000060: 58aa a0bd e458 bd3c d731 ad3c ac41 a1bd
00000070: 600a 433d 587c 12be cc06 f6bc 533e 17be
00000080: bc76 a43c fed7 183e ef53 95bd 4ce4 123e
00000090: 1303 743d c80b e33d 8767 f4bc 7429 d1bd
000000a0: e3f1 e63d e133 483d e655 b93d a6ef 31be
000000b0: fc09 003c b980 953d a191 653d ffb1 213d
000000c0: 0435 aebd d0ff 3dbe 4558 913c a0ef 1e3d
000000d0: d3a4 9f3d 1a54 463d 3789 c53d bd22 563c
000000e0: 77b0 4ebc 39d4 4c3d 79f6 62bd 45dc 10be
000000f0: c9e1 68bd 3284 abbd 5ff1 073e 7f85 bb3c
00000100: 19da 0ebc 366a f13d 2026 c13d 6928 fe3d
00000110: c98e 5f3d 896d 69bd a799 e0bd b341 303d
00000120: 9969 fa3c b41d 273d a5be e63d 3a5c a13d
00000130: 8236 6dbd 834b 5d3b c8f9 283d 6c43 88bd
00000140: 982c 0c3e d31b e43d baa4 84bb f830 bbbb
00000150: 3108 f8bd 5776 02bd 08e7 0bbd 54fc 273d
00000160: 11f0 a43d 8161 203d e0f8 0a3e d328 7bbc
00000170: a753 fd3d 6389 34bb f4f0 f43b b356 323c
00000180: 65a1 d2bd 199b 3abd 9ce4 59bd ad43 5fbd
00000190: 3596 1fbe 8508 bcbc a8f1 90bd 75ff 11bd
000001a0: 8730 a23d b7dd 0dbc 47f9 eb3d a5d7 ecbc
000001b0: a743 8cbd 5ce5 8dbd 536d 4e3a 209d 0cbe
000001c0: 9695 9b3d efe6 973c 2ca8 33bd c4b1 e23c
000001d0: 44cc 1bbc 743a 02be b118 d9bd 376d 07be
000001e0: 2c04 663e dcaf afbc 5f6f 263e a13f 57be
000001f0: 0338 5e3e bf89 b6bc 9581 aabc a5c4 c63c
00000200: 9d37 92bc f1aa adbd 3a01 33be e52c 4d3e
00000210: e76f bebc bcdc 16be 47e3 43bd 2ed1 6d3e
00000220: 9979 e03d e967 7c3c be0e d9bd 336c d0bd
00000230: 3a95 18bb 3474 a7bd f2af 6cbd c9b4 37bd
00000240: 9213 60bd 72b2 dc3c abbb eabd 6cde 1c3d
00000250: 0158 cf3b 67ca 1f3c 28b4 11bd 8459 213d
00000260: 217a e43c 1b21 4a3d 4228 c3bc 0894 b53c
00000270: c6ea 4f3c 8eaa 46be cf2f 97bd 87fc 90bd
00000280: 4fa1 ad3c 2a71 b0bc ebd9 c2bc cd8a 123e
00000290: 709b 2fbe 73bf 0ebc 96ee e83b 9660 babd
000002a0: 3002 9dbd b16c a0bd 900a 26bc 76ab 35bc
000002b0: 03e6 983d 5ab3 8cbc ff3e 0e3d 7f31 353e
000002c0: 3d8d 5ebc 87ab 02bd 5f18 183d 7c05 27be
000002d0: bb44 e33c fb4d 0c3c a728 b9bd 32ed 38be
000002e0: 1d0d a5bb 68e3 203e f589 933b da59 283e
000002f0: ff24 253e 3570 b93d 77c5 883d eb4f 153d
00000300: 4112 dabc f4f7 d2bc 0f03 1ebe 7b9c d3bd
00000310: b619 1b3e 2973 33be e581 2ebe 3d9c 073d
00000320: d652 c33b 171a 78bd 49b7 42bd 139a e6bc
00000330: b1f2 e23b 46ac 2d3e ccda 843d 38c3 b4bd
00000340: 65b4 423c a2f6 acbd e65f 833c cdd3 4a3d
00000350: 1066 c73c 7306 abbd 8fac 653d ba8f 363d
00000360: 42b6 e13b 084b a43d f919 33be 3d74 d7bd
00000370: ef4f 7d3d 14c6 d83d a1e4 3abd c867 47bc
00000380: 88bb 0cbd 7991 c53d 0c9d 583c f25d a73c
00000390: 777e a63b 2cdf d5bd 9ee7 3e3d c1a6 08bd
000003a0: 17fc d2bc 4ebf f3bd 9b86 083e a249 fcbb
000003b0: 9215 dabc 3a27 a2bd 5758 c73c 8838 8bbd
000003c0: de3e 33bd 1b2d 043e b1dc 51be 8ebc b8bb
000003d0: 0458 983a 4e69 483e 7f63 423c 4b09 2ebd
000003e0: 5ab3 a8bc 195e 293e ef53 303d f174 6a3e
000003f0: c727 cf3c 8ab2 623d 9560 4c3d 349f 56bc

lin2.bias f4 [100]
0.040373 0.07410989 0.027543612 0.08982963 -0.07397052 0.065585285 -0.06591629 -0.06319677
-0.028802563 0.001825158 0.014750536 0.00335044 -0.08787062 -0.0053337547 -0.06144771 0.0972577
0.043647222 -0.015126016 0.08454649 -0.04234816 0.09369465 0.022891562 -0.094307065 0.07591888
0.04880206 -0.084818654 -0.052192084 0.06955501 -0.070511594 -0.07403327 0.017859975 -0.024832224
0.08122276 0.0509662 -0.0132032335 0.008000962 -0.06559172 0.047054894 -0.039101794 -0.07876302
0.011401374 -0.055149976 -0.08757789 0.048926048 0.054324437 0.015245566 0.005999769 -0.06801005
0.06251733 0.04582198 0.047456518 0.005590056 -0.09464787 -0.0052803773 -0.063798554 0.04826281
0.07864624 -0.0962546 -0.035014056 -0.045383632 -0.058024753 -0.044068344 -0.08401828 -0.017662603
-0.021840818 0.08552277 0.04189151 0.02052208 0.024795521 -0.028414046 -0.030719997 0.05229722
-0.031232413 0.01378172 -0.03109016 -0.022750393 -0.084389605 0.007850119 -0.07068123 -0.09750322
0.07054448 0.02489787 -0.063652016 -0.03030986 -0.01095052 -0.0662286 0.0830883 0.004566947
-0.014039535 -0.026458938 -0.09246025 0.096190214 0.041894957 -0.07291831 0.012932393 -0.02041298
0.069605544 -0.0056193843 -0.004272897 -0.088590436
00000000: 295e 253d edc6 973d 24a3 e13c 99f8 b73d
00000010: db7d 97bd 9451 863d 1fff 86bd 4f6d 81bd
00000020: 5af3 ebbc 243a ef3a 3bac 713c 0e93 5b3b
00000030: 83f5 b3bd c7c6 aebb 98b0 7bbd 0c2f c73d
00000040: 6ec7 323d 1cd3 77bc b626 ad3d 4475 2dbd
00000050: fbe2 bf3d 1687 bb3c 1024 c1bd 5c7b 9b3d
00000060: abe4 473d 67b5 adbd 5ec7 55bd db72 8e3d
00000070: 6268 90bd c19e 97bd 154f 923c f36c cbbc
00000080: 1e58 a63d efc1 503d 6052 58bc 7816 033c
00000090: f454 86bd a2bc 403d 3429 20bd 824e a1bd
000000a0: d4cc 3a3c f1e4 61bd 095c b3bd ae66 483d
000000b0: 4d83 5e3d 8ac8 793c b699 c43b da48 8bbd
000000c0: 1609 803d d4af 3b3d c461 423d ca2c b73b
000000d0: bed6 c1bd 0407 adbb d1a8 82bd 39af 453d
000000e0: 4811 a13d 2221 c5bd e66a 0fbd 30e4 39bd
000000f0: 5dab 6dbd 0281 34bd c711 acbd 2ab1 90bc
00000100: 84eb b2bc 9026 af3d 6f96 2b3d ec1d a83c
00000110: fa1f cb3c 93c4 e8bc 81a8 fbbc 9c35 563d
00000120: 1edb ffbc b9cc 613c cbb0 febc 085f babc
00000130: 75d4 acbd c99d 003c 52c1 90bd c5af c7bd
00000140: a079 903d 9ef6 cb3c fd5b 82bd 624c f8bc
00000150: cf69 33bc dca2 87bd 332a aa3d 54a6 953b
00000160: 1406 66bc 6ac0 d8bc cd5b bdbd 60ff c43d
00000170: 0c9a 2b3d 3256 95bd 63e2 533c 1f39 a7bc
00000180: 5a8d 8e3d d022 b8bb a803 8cbb e76e b5bd

lin3.weight f4 [100, 100]
0.18096052 0.041848563 0.17285022 -0.034972508 0.08378209 -0.006346725 0.039749317 0.14046937
0.017817838 -0.024598757 -0.05651756 0.16243841 -0.119895354 -0.03968457 0.12053845 -0.013644683
0.07754634 0.11119137 0.01619907 -0.1431377 -0.17445387 0.010810703 -0.19749647 0.24725652
-0.024490824 0.08313127 0.0769054 0.17189234 -0.07145499 -0.04796599 -0.0119742155 -0.049431875
0.06911095 -0.13774036 -0.0818877 0.111207165 -0.013518876 0.058861714 0.034995068 -0.0022597015
-0.014898327 -0.033754017 0.060557462 -0.106804065 -0.28932303 -0.21620396 -0.086896665 0.17162044
-0.0078992825 -0.07296594 0.0191481 0.014088991 0.14843188 0.07858263 -0.06704963 0.07614844
-0.013135076 -0.07436866 0.12643154 0.16029418 0.03232756 0.07708016 0.12443307 -0.081330396
-0.12143889 -0.17724498 -0.099137194 0.033230055 -0.06515624 0.07296135 -0.15584163 0.046048336
-0.037428923 0.10235152 -0.03938093 -0.03869021 -0.07033488 -0.06743513 -0.015472961 -0.18642245
0.0800435 0.08721652 -0.11703964 -0.098387636 -0.04840922 0.06309258 -0.008632326 0.08804769
-0.064112805 0.05035729 -0.030373467 0.0135321 -0.060468618 -0.095062256 0.13521871 -0.034375563
-0.1323287 0.012148262 -0.062243067 -0.09450293 -0.10107827 -0.048207946 0.14511715 -0.075072415
-0.08651646 0.13869734 0.013142999 -0.046085127 -0.016883444 0.059508216 -0.0303005 -0.1243714
-0.10517092 -0.19759539 -0.09435316 -0.03135277 -0.032859 -0.08612272 -0.11724755 0.0042259996
-0.102037445 0.079082094 -0.15289034 0.123480916 0.06955816 0.16783606 0.016276777 -0.03718464
-0.026877379 0.19288759 0.1600702 0.027565883 -0.13296592 -0.19185564 0.036039133 0.036665954
-0.08429811 0.111005105 -0.119310774 -0.008402199 0.14200819 -0.04411604 -0.18685405 -0.1422745
-0.15680687 0.032049894 -0.03643603 -0.00086921 0.0737429 0.11479746 0.040178537 -0.0008439378
-0.22666734 -0.0062049455 -0.18428859 -0.021481816 0.01191668 -0.011457968 0.06954097 0.13656807
-0.111392565 -0.06283864 -0.011861246 -0.050905686 0.039306447 -0.055591267 -0.013632235 0.033390615
0.09902222 0.045865573 -0.04313117 -0.024942337 0.0780062 0.073432796 -0.12175293 -0.16425546
0.015881665 -0.10786901 0.015262329 -0.063301496 0.20639074 0.055107236 0.03744395 -0.018487513
-0.043058626 0.15130591 -0.04594254 0.014405993 0.21523511 0.051979814 -0.031503018 -0.1306173
0.1409464 0.0973907 0.019672748 -0.033690285 0.03235213 0.056736246 0.0030604391 0.003328202
0.081708334 -0.03828485 -0.010682326 0.21708521 -0.060532954 0.05855446 -0.06925764 -0.073974594
0.04626699 -0.042911753 0.13091825 0.07490281 -0.13116199 0.061415642 -0.09718028 0.09438412
0.020689081 -0.0841204 0.12223767 -0.051206637 0.0799748 -0.098887235 0.11528993 -0.09661256
-0.21579474 0.08485937 0.1555167 0.015528773 -0.07230461 -0.12073012 0.17596264 0.09122167
-0.04128459 -0.06822456 -0.025348807 -0.052823182 -0.10174206 0.045417197 -0.14820908 0.022193898
0.185955 0.16769488 0.096484385 -0.052644297 -0.01704432 0.060961086 0.011822879 0.05077325
0.18052742 0.079642005 -0.08994095 0.050479554 -0.06542974 -0.068195656 -0.1202395 0.04794432
00000000: b74d 393e 6669 2b3d a6ff 303e 553f 0fbd
00000010: f295 ab3d 30f8 cfbb 2ed0 223d 34d7 0f3e
00000020: b7f6 913c 5583 c9bc f57e 67bd 4156 263e
00000030: b28b f5bd 4a8c 22bd dddc f63d f38d 5fbc
00000040: 9ed0 9e3d 4db8 e33d e9b3 843c b092 12be
00000050: 09a4 32be 601f 313c 843c 4abe d030 7d3e
00000060: fba0 c8bc ba40 aa3d 9480 9d3d 8c04 303e
00000070: fe56 92bd fc77 44bd 802f 44bc 1479 4abd
00000080: 0b8a 8d3d cf0b 0dbe bdb4 a7bd 95c0 e33d
00000090: 477e 5dbc fb18 713d fd56 0f3d 8017 14bb
000000a0: 1d18 74bc a741 0abd 1a0b 783d 17bc dabd
000000b0: 2622 94be 9264 5dbe e1f6 b1bd 45bd 2f3e
000000c0: fe6b 01bc 2b6f 95bd 7adc 9c3c 83d5 663c
000000d0: 87fe 173e eeef a03d 5151 89bd b7f3 9b3d
000000e0: 8034 57bc 994e 98bd 4577 013e 2824 243e
000000f0: e769 043d 34dc 9d3d c4d6 fe3d 8d90 a6bd
00000100: f4b4 f8bd b57f 35be 7108 cbbd 3d1c 083d
00000110: a270 85bd c36c 953d f394 1fbe 2e9d 3c3d
00000120: 124f 19bd ac9d d13d e64d 21bd a079 1ebd
00000130: bc0b 90bd 6e1b 8abd 4d82 7dbc 87e5 3ebe
00000140: d9ed a33d 939e b23d 7bb2 efbd 757f c9bd
00000150: bf48 46bd af36 813d 996e 0dbc 5952 b43d
00000160: 934d 83bd 7243 4e3d c7d1 f8bc beb5 5d3c
00000170: f1ad 77bd 00b0 c2bd c676 0a3e 64cd 0cbd
00000180: 2d81 07be 8109 473c 96f2 7ebd c18a c1bd
00000190: 2002 cfbd b275 45bd 9799 143e 91bf 99bd
000001a0: 8b2f b1bd ad06 0e3e bc55 573c c2c3 3cbd
000001b0: 264f 8abc e3be 733d c138 f8bc 6fb6 febd
000001c0: da63 d7bd 7256 4abe 3b3c c1bd c36b 00bd
000001d0: 2997 06bd 1c61 b0bd 7c1f f0bd 417a 8a3b
000001e0: 02f9 d0bd cbf5 a13d 498f 1cbe 90e3 fc3d
000001f0: 8274 8e3d 37dd 2b3e e056 853c ec4e 18bd
00000200: f32d dcbc 5384 453e 71e9 233e d9d1 e13c
00000210: 3828 08be ce75 44be c59d 133d 0a2f 163d
00000220: 7da4 acbd a556 e33d 3559 f4bd 60a9 09bc
00000230: 986a 113e 05b3 34bd ab56 3fbe 68b0 11be
00000240: fb91 20be c046 033d f23d 15bd b2db 63ba
00000250: 8406 973d ee1a eb3d 4092 243d b53b 5dba
00000260: 7c1b 68be db52 cbbb 26b6 3cbe a2fa afbc
00000270: 2e3e 433c 33ba 3bbc 7f6b 8e3d 80d8 0b3e
00000280: c921 e4bd 8bb1 80bd ac55 42bc 7b82 50bd
00000290: ccff 203d abb3 63bd bd59 5fbc 99c4 083d
000002a0: 29cc ca3d 8add 3b3d 4faa 30bd df53 ccbc
000002b0: b7c1 9f3d ef63 963d 9a59 f9bd 9532 28be
000002c0: 441a 823c 6dea dcbd d90e 7a3c 37a4 81bd
000002d0: 1858 533e 20b8 613d d45e 193d 2073 97bc
000002e0: 3e5e 30bd f0ef 1a3e 3f2e 3cbd 1d07 6c3c
000002f0: 9866 5c3e c9e8 543d 4f09 01bd 8bc0 05be
00000300: 4154 103e c674 c73d be28 a13c d3fe 09bd
00000310: ab83 043d 4464 683d a691 483b f71d 5a3b
00000320: b356 a73d 93d0 1cbd ec04 2fbc 964b 5e3e
00000330: 67f1 77bd cdd6 6f3d f3d6 8dbd fe7f 97bd
00000340: 7582 3d3d 3cc4 2fbd 6f0f 063e a566 993d
00000350: 544f 06be f88e 7b3d 7406 c7bd 764c c13d
00000360: 267c a93c 5147 acbd be57 fa3d 0dbe 51bd
00000370: d4c9 a33d 6485 cabd 201d ec3d cedc c5bd
00000380: 4cf9 5cbe c0ca ad3d c53f 1f3e 656c 7e3c
00000390: 7014 94bd 5a41 f7bd 8d2f 343e 6dd2 ba3d
000003a0: 081a 29bd 51b9 8bbd 4da8 cfbc 1f5d 58bd
000003b0: 245e d0bd 6207 3a3d 1fc4 17be facf b53c
000003c0: fd6a 3e3e 35b8 2b3e 9b99 c53d 8ca1 57bd
000003d0: 88a0 8bbc 55b2 793d c0b4 413c 9df7 4f3d
000003e0: 2edc 383e 591b a33d f632 b8bd a6c3 4e3d
000003f0: 0700 86bd 2aaa 8bbd 2140 f6bd 4361 443d

lin3.bias f4 [100]
-0.09103305 -0.0842574 0.0788163 -0.04376108 0.074638166 -0.035908062 0.020433951 0.015016396
-0.0786442 -0.06999621 -0.0686404 0.01649599 -0.02685975 0.010382889 0.09329052 0.08351279
-0.09524955 -0.068283916 -0.063762635 -0.04887926 -0.05260253 0.053894915 0.028999912 0.07189246
0.0812735 -0.08007928 0.04741797 0.014466507 -0.03594205 -0.039470464 0.050058603 -0.086896785
0.08256955 0.06783171 0.04898916 -0.012733188 -0.09792163 -0.0573781 -0.023453237 0.09138235
0.07227192 -0.019159636 0.015368858 -0.039070066 0.07210685 0.07187961 0.024885105 0.09878841
0.02928737 -0.022153255 -0.013435192 -0.06719225 -0.009748354 -0.01331456 -0.029802354 0.046445463
0.002994461 0.09756768 -0.023214001 0.05105742 -0.051632676 0.036489576 0.08200779 0.015457416
0.038946107 -0.01820539 -0.07481832 0.013982486 0.086314335 -0.019832702 -0.08213743 0.0336681
-0.08743287 0.060554054 -0.06052281 -0.018264674 -0.051052082 0.046640877 0.0691169 -0.06723044
-0.02737164 -0.05426359 0.02712348 0.002265551 -0.02839864 -0.059100423 0.029894942 -0.038320396
0.04877307 -0.03521891 -0.033258844 -0.033795364 0.00018632237 0.08641608 -0.066944264 -0.06354167
-0.035980504 -0.07181552 -0.013869312 0.08071633
00000000: 896f babd 258f acbd 716a a13d d13e 33bd
00000010: e5db 983d 5514 13bd 1a65 a73c 5407 763c
00000020: 3610 a1bd 2c5a 8fbd 5793 8cbd 9922 873c
00000030: fa08 dcbc fe1c 2a3c 1a0f bf3d c108 ab3d
00000040: 3212 c3bd 70d8 8bbd fc95 82bd 9e35 48bd
00000050: c075 57bd eac0 5c3d 3991 ed3c 5b3c 933d
00000060: b972 a63d 9b00 a4bd 5839 423d ee04 6d3c
00000070: f937 13bd c8ab 21bd 400a 4d3d f1f6 b1bd
00000080: 391a a93d 5aeb 8a3d dca8 483d dd9e 50bc
00000090: 238b c8bd 4c05 6bbd 0121 c0bc ab26 bb3d
000000a0: 4d03 943d abf4 9cbc aacd 7b3c ef07 20bd
000000b0: c2ac 933d 9e35 933d d9db cb3c 9451 ca3d
000000c0: 11ec ef3c be7a b5bc 481f 5cbc 179c 89bd
000000d0: 8fb7 1fbc 5025 5abc 1124 f4bc 993d 3e3d
000000e0: b83e 443b 90d1 c73d 4a2b bebc 9621 513d
000000f0: c97c 53bd 1876 153d b3f3 a73d 1a41 7d3c
00000100: f485 1f3d 7823 95bc 593a 99bd cc16 653c
00000110: 92c5 b03d 3178 a2bc ab37 a8bd 90e7 093d
00000120: 0110 b3bd 8707 783d c4e6 77bd cc9f 95bc
00000130: fd1b 51bd 810a 3f3d 298d 8d3d 1db0 89bd
00000140: 7d3a e0bc 8043 5ebd 0f32 de3c a379 143b
00000150: 44a4 e8bc 4913 72bd 3de6 f43c d9f5 1cbd
00000160: 45c6 473d b441 10bd 6d3a 08bd 026d 0abd
00000170: 885f 4339 eafa b03d 131a 89bd 2322 82bd
00000180: 4b60 13bd 0414 93bd 1c3c 63bc 9a4e a53d

lin4.weight f4 [100, 100]
-0.07296084 0.11425459 0.10368134 -0.014839968 0.010587415 0.015374494 -0.011177515 0.04873718
0.019528374 0.110605195 0.034179464 -0.077959806 -0.15905884 -0.05204608 -0.026358904 0.056003973
0.11261533 -0.14939141 -0.02560215 0.15938976 -0.13750032 0.101059325 0.0045950604 0.09901645
0.11099284 -0.05602153 3.3968743e-05 -0.058263943 -0.073116966 -0.18535435 0.016748084 0.17156257
-0.025613468 0.0050481916 0.12484657 -0.07998542 0.038508747 0.020283064 0.041686725 0.06284645
-0.12292182 -0.12102238 -0.099804915 -0.13749674 -0.077135384 -0.11379935 0.057964135 -0.038183246
-0.120306015 -0.043987658 -0.05770149 -0.09688766 -0.15815371 0.13633658 0.048451994 0.05541887
0.106472865 0.038358223 -0.09888642 -0.08789008 0.051963743 0.17029227 0.05706275 -0.006903893
0.034811445 -0.046435054 0.039414097 0.090458915 -0.051648196 -0.14629163 -0.10649047 0.10275477
-0.10821474 0.028535498 -0.20859791 -0.08986769 0.010177835 -0.013779697 -0.054663677 -0.0044600354
0.048767373 0.01401748 -0.21568161 -0.048818767 -0.078383595 -0.0024949182 -0.023878662 0.06423543
0.00044572743 -0.13614754 -0.06921818 -0.025912594 -0.043330792 0.15883726 -0.09352984 -0.08748934
0.17871591 -0.027837906 -0.091323085 -0.10694886 0.16291644 -0.0018715459 -0.008635474 0.040707637
-0.04020492 0.024183098 0.075816885 -0.08511997 -0.09923778 -0.044836756 0.020055491 0.07774572
0.017814836 -0.19240953 0.08439773 0.052466378 -0.06246487 0.096605144 -0.20805536 0.11356345
0.02363153 -0.027816053 -0.1315203 -0.109096855 -0.054422442 -0.018999431 0.1448071 -0.05111936
-0.0002461156 -0.022322912 0.049948834 -0.15892908 -0.051498115 -0.049951352 -0.010411223 0.12273906
-0.06009356 -0.09764266 0.037517313 -0.09886585 0.024208467 -0.095738724 0.05793337 -0.029857906
-0.13832061 0.062780485 0.10342635 0.09043207 -0.12040819 -0.048208326 -0.1192054 -0.037032172
0.0034062574 0.13214882 -0.06388224 0.07349488 0.105766855 -0.07309345 -0.10531338 0.048758235
0.020095915 -0.06389105 0.09822695 -0.16832337 -0.09397971 -0.17597717 0.10391847 -0.042454742
0.14143364 -0.030460956 0.029412553 0.024069993 0.00012807816 0.021834126 0.03623874 0.08518343
-0.0979879 0.047351398 0.011791625 -0.07371618 -0.03387555 0.17351331 0.087867685 -0.13981877
-0.07732532 -0.009688743 0.1525118 -0.054711882 -0.0054657008 0.2374623 0.09524601 0.047455516
-0.1290591 -0.01270939 0.14835976 -0.027192732 -0.048833426 -0.030455159 0.033488244 0.05518348
-0.1651184 0.004588316 0.11237098 0.06273894 -0.04196283 0.032164384 -0.14813654 0.0705103
0.072418556 -0.205278 -0.0026136306 0.04075185 -0.05865916 -0.01520779 -0.17088868 -0.17692111
0.19362806 0.22065362 -0.05551567 -0.0064546936 -0.022561094 -0.12415942 0.018130412 -0.03323978
0.06299736 -0.051160403 0.12770478 0.02965683 0.015517683 -0.21030751 0.09222507 -0.021161104
-0.036559444 -0.07834069 -0.11220311 0.10499426 -0.061428536 -0.0033296605 0.18610284 0.20503832
0.0125878295 -0.091460384 0.06375822 0.06231758 -0.30074608 -0.0199473 -0.03354343 0.04601648
-0.0011511582 0.033764992 -0.039993268 -0.060128912 0.09709735 0.08635884 -0.048800115 0.021781268
00000000: 7e6c 95bd 4ffe e93d e256 d43d 5623 73bc
00000010: d676 2d3c 4de5 7b3c e521 37bc a3a0 473d
00000020: f8f9 9f3c fa84 e23d c4ff 0b3d 64a9 9fbd
00000030: 52e0 22be 452e 55bd a1ee d7bc 6c64 653d
00000040: dea2 e63d 10fa 18be 9abb d1bc 1237 233e
00000050: e2cc 0cbe 31f8 ce3d 2992 963b 23c9 ca3d
00000060: 3750 e33d d576 65bd a979 0e38 2ca6 6ebd
00000070: 59be 95bd 88cd 3dbe 4733 893c 19ae 2f3e
00000080: 56d3 d1bc 4d6b a53b 8faf ff3d 65cf a3bd
00000090: 59bb 1d3d ab28 a63c b3bf 2a3d a4b5 803d
000000a0: 6fbe fbbd 95da f7bd 8566 ccbd f2cb 0cbe
000000b0: 28f9 9dbd a20f e9bd cd6b 6d3d 0966 1cbd
000000c0: 0063 f6bd 672c 34bd 6658 6cbd 0a6d c6bd
000000d0: 0cf3 21be d19b 0b3e 9975 463d e6fe 623d
000000e0: 720e da3d 831d 1d3d f784 cabd b7ff b3bd
000000f0: efd7 543d 1961 2e3e a1ba 693d 0d3a e2bb
00000100: 7296 0e3d af32 3ebd ad70 213d 8642 b93d
00000110: 0f8d 53bd 79cd 15be ad17 dabd 1871 d23d
00000120: b19f ddbd 47c3 e93c b19a 55be 8d0c b8bd
00000130: efc0 263c 3dc4 61bc 05e7 5fbd 7d25 92bb
00000140: 4cc0 473d 93a9 653c a4db 5cbe 30f6 47bd
00000150: 9487 a0bd c881 23bb 2f9d c3bc dd8d 833d
00000160: 86b0 e939 436a 0bbe 43c2 8dbd a646 d4bc
00000170: a17b 31bd 3ca6 223e 938c bfbd 9c2d b3bd
00000180: 4e01 373e 520c e4bc 9907 bbbd 0108 dbbd
00000190: 91d3 263e a94e f5ba ce7b 0dbc 0dbd 263d
000001a0: eaad 24bd a21b c63c e245 9b3d 6153 aebd
000001b0: 2d3d cbbd bfa6 37bd 6a4b a43c 2639 9f3d
000001c0: 6bf0 913c 0107 45be b8d8 ac3d fce6 563d
000001d0: 2adb 7fbd ebd8 c53d 770c 55be f493 e83d
000001e0: e996 c13c 7ede e3bc 42ad 06be 2c6e dfbd
000001f0: 11ea 5ebd b2a4 9bbc 5048 143e 8962 51bd
00000200: 1409 81b9 8ade b6bc 2697 4c3d 4ebe 22be
00000210: b0ef 52bd ca99 4cbd d693 2abc 9e5e fb3d
00000220: aa24 76bd e0f8 c7bd c1ab 193d 2e7a cabd
00000230: d650 c63c aa12 c4bd 8b4b 6d3d 9198 f4bc
00000240: eba3 0dbe 0e93 803d 32d1 d33d 7334 b93d
00000250: 9298 f6bd 1876 45bd f621 f4bd 0caf 17bd
00000260: 843b 5f3b 0552 073e b1d4 82bd 7c84 963d
00000270: 4b9c d83d 05b2 95bd 8bae d7bd b7b6 473d
00000280: 30a0 a43c 50d9 82bd 362b c93d f65c 2cbe
00000290: 6f78 c0bd 5c33 34be 35d3 d43d 06e5 2dbd
000002a0: fbd3 103e 4189 f9bc 98f2 f03c 6f2e c53c
000002b0: b84c 0639 7bdd b23c 136f 143d a674 ae3d
000002c0: e1ad c8bd 8af3 413d a931 413c 82f8 96bd
000002d0: 17c1 0abd 79ad 313e f9f3 b33d a72c 0fbe
000002e0: bd5c 9ebd 89bd 1ebc 0e2c 1c3e 9119 60bd
000002f0: 9f19 b3bb 5129 733e 5710 c33d b760 423d
00000300: 1228 04be 0c3b 50bc 9feb 173e 4bc3 debc
00000310: 8f05 48bd 197d f9bc f82a 093d 1308 623d
00000320: cc14 29be 9659 963b c222 e63d 467d 803d
00000330: 37e1 2bbd cdbe 033d 1bb1 17be b467 903d
00000340: 2e50 943d 6534 52be 7249 2bbb 69eb 263d
00000350: 9644 70bd 182a 79bc 71fd 2ebe cf2a 35be
00000360: 6f46 463e 06f3 613e 6664 63bd e581 d3bb
00000370: 0bd2 b8bc 4b47 febd 3b86 943c 7026 08bd
00000380: c304 813d 928d 51bd 0bc5 023e e1f2 f23c
00000390: e13d 7e3c da5a 57be 7fe0 bc3d 0d5a adbc
000003a0: 5bbf 15bd 1571 a0bd beca e5bd 3b07 d73d
000003b0: 7d9c 7bbd 6f36 5abb be91 3e3e 91f5 513e
000003c0: 2f3d 4e3c 954f bbbd ab93 823d b840 7f3d
000003d0: 64fb 99be 8568 a3bc d664 09bd c77b 3c3d
000003e0: 76e2 96ba 294d 0a3d fbcf 23bd bc49 76bd
000003f0: fada c63d e7dc b03d a1e2 47bd a16e b23c

lin4.bias f4 [100]
0.039905056 0.019907888 0.0060131173 -0.059296016 -0.02185939 0.022813968 0.09209041 -0.0037321795
-0.032685924 0.039563876 -0.056430712 0.062579766 -0.012635237 -0.045688413 -0.097006306 0.087836444
0.05385495 0.02527387 -0.06773565 0.06289698 -0.05904147 0.03228575 -0.04252243 0.0621148
-0.06734375 0.040732466 -0.086829446 -0.014925668 0.052285817 -0.015366927 0.061343793 -0.02568273
0.013139452 -0.033703748 0.08977971 0.07620719 -0.07168972 -0.023625547 0.09873143 0.09651923
-0.07391464 0.08967395 -0.08611337 0.016440563 0.0453364 -0.01862515 0.051158737 0.07783199
-0.07518422 -0.056641903 -0.052960377 -0.027283829 0.07037691 -0.035046462 -0.027244959 0.053676665
-0.052201934 0.03477968 0.045565676 -0.09547795 0.05095947 0.053956583 -0.08940663 -0.051670555
-0.09904663 -0.01803307 0.019458475 -0.09203934 0.074376315 0.058607187 -0.013832917 0.07442342
-0.005761195 -0.0058238683 0.08400079 0.014329159 -0.0037881692 0.06994313 0.006613228 0.06268671
-0.032713458 0.05154698 -0.016944563 -0.08128713 0.06512054 0.047533482 -0.03122011 0.006143144
-0.062151026 -0.08121145 0.034608345 -0.0735326 0.018462533 0.069775194 -0.0832205 -0.018278914
0.02800175 -0.08233854 0.042324167 0.020930272
00000000: 7c73 233d de15 a33c af09 c53b 61e0 72bd
00000010: 7712 b3bc 5ce4 ba3c e699 bc3d 9597 74bb
00000020: ade1 05bd bb0d 223d e423 67bd d229 803d
00000030: 0604 4fbc c623 3bbd 3eab c6bd 98e3 b33d
00000040: 0297 5c3d 260b cf3c fdb8 8abd 22d0 803d
00000050: 78d5 71bd 103e 043d 002c 2ebd 176c 7e3d
00000060: 85eb 89bd 16d7 263d a3d3 b1bd ca8a 74bc
00000070: a729 563d 90c5 7bbc a143 7b3d 9764 d2bc
00000080: db46 573c f10c 0abd 6dde b73d 8412 9c3d
00000090: 0fd2 92bd 5d8a c1bc b433 ca3d e0ab c53d
000000a0: 8f60 97bd faa6 b73d 355c b0bd 5cae 863c
000000b0: a9b2 393d c593 98bc d38b 513d 6166 9f3d
000000c0: 2ffa 99bd 5701 68bd fbec 58bd 5682 dfbc
000000d0: c521 903d e18c 0fbd d230 dfbc 10dc 5b3d
000000e0: b2d1 55bd 2375 0e3d 13a3 3a3d f289 c3bd
000000f0: e1ba 503d 9401 5d3d d31a b7bd 81a4 53bd
00000100: f6d8 cabd 17ba 93bc 6167 9f3c 1f7f bcbd
00000110: 9c52 983d 170e 703d 76a3 62bc 4e6b 983d
00000120: 68c8 bcbb 26d6 bebb 9b08 ac3d d9c4 6a3c
00000130: ef42 78bb 583e 8f3d c7b3 d83b e461 803d
00000140: 8cfe 05bd ed22 533d 53cf 8abc de79 a6bd
00000150: eb5d 853d 78b2 423d 51c1 ffbc 6d4c c93b
00000160: 1392 7ebd 3052 a6bd 7bc1 0d3d 4398 96bd
00000170: bd3e 973c 4ce6 8e3d 826f aabd a9bd 95bc
00000180: ed63 e53c 1ca1 a8bd 1b5c 2d3d f675 ab3c

lin5.weight f4 [100, 100]
-0.06505182 0.04697443 -0.0023277444 -0.083406545 -0.03256669 -0.024123976 -0.027105188 -0.0037823608
0.077368625 -0.022389378 -0.10625881 0.0721442 0.08672096 -0.09802749 0.08043451 -0.092825405
0.08814014 0.10053377 0.037584506 0.06141813 0.124879934 0.10107992 0.0042591994 -0.12756011
-0.025552807 -0.07926704 -0.13443153 0.06301544 -0.12628579 0.010497357 0.11240522 0.010945869
0.11345794 -0.0979453 0.15660769 0.10165204 0.05798306 0.14188725 -0.05543178 0.055818323
0.09394491 -0.119114056 -0.10596972 0.09613616 0.08252922 0.08900622 0.13444996 -0.1208711
0.007467928 -0.036260486 0.105691664 -0.007897309 0.05443186 0.10818832 -0.10710404 -0.19287823
0.09718892 0.041392125 -0.18723874 0.1350737 -0.0721957 -0.051665816 0.07399536 -0.027803397
0.050881907 -0.02197228 0.018374922 -0.048692163 0.0082172025 0.09404842 0.06579597 -0.068517245
0.13690504 -0.008324695 0.13857587 0.1266538 -0.06826162 -0.17492472 0.041580603 -0.055198662
-0.06304938 -0.12464873 0.10171566 0.08190782 -0.051499546 -0.11492809 0.0021671818 -0.011975192
0.1952007 -0.010854668 -0.2497211 -0.05921218 0.05389532 0.005600349 0.098358214 -0.01069447
0.07812963 -0.034038294 0.1192175 0.027172469 -0.15968613 -0.028733643 -0.05562211 0.014849733
-0.20949407 -0.0600123 -0.0894918 0.012365691 -0.04190623 -0.12038464 -0.009879926 -0.0018103961
-0.019836992 0.04861889 0.0003812986 -0.0651565 0.07306385 0.08678201 0.1786589 0.0038419068
0.05142976 -0.15711764 0.046490423 0.04194454 -0.12995492 -0.05133141 0.07796084 0.14757544
0.007155954 0.118809655 -0.08160869 0.0073700985 0.04190255 0.01687505 -0.12753966 -0.076303475
-0.05301466 -0.05316246 0.0075684544 0.08775456 0.08106601 0.18226984 -0.031529788 -0.04446439
0.116062015 0.045909517 -0.1507321 -0.021085376 -0.27127963 0.05653157 0.010117959 0.07147238
0.0800048 0.06956286 -0.09179342 0.1785957 -0.28216103 0.0107602365 0.00039697014 0.17729793
-0.041340858 -0.055050675 -0.032635164 -0.11168632 -0.108258516 0.035750117 -0.08995636 -0.13134083
0.1035653 -0.19188538 -0.15565029 -0.0012703706 0.18151326 0.14874454 -0.02061642 -0.02987771
-0.052327465 -0.04493348 -0.1488813 0.004101382 0.035039645 0.006727829 0.006189886 -0.008571416
-0.090215184 0.041445065 0.050433584 -0.035638303 0.15461154 -0.061899234 -0.045329 -0.14054352
-0.033781968 0.0500766 -0.073861055 -0.041178882 0.03256181 -0.112544134 0.14337471 0.21687485
-0.095501944 0.025446396 0.21360846 0.06467479 -0.16555662 -0.07873606 0.097477175 0.1982663
-0.21074055 0.05039538 0.12448068 -0.07056619 0.0007607522 -0.112701066 0.15240824 0.007337646
0.15441762 -0.07490085 -0.016706713 -0.18816783 0.12594141 0.0072767907 0.02987785 0.027580285
0.025075343 0.0024479227 0.21365151 0.05037186 0.13559489 0.11322833 0.105042346 -0.10328213
-0.08130255 -0.12456911 -0.06774352 0.031844776 -0.03840138 0.07165239 -0.002495431 -0.15599334
-0.0817967 0.074279465 -0.06903103 -0.11230577 0.1768018 -0.16468233 0.038245775 -0.05519917
-0.054665394 0.067243464 -0.1295012 0.02372063 -0.038409166 -0.06520864 0.26634225 0.203459
00000000: e339 85bd 4368 403d 128d 18bb 0dd1 aabd
00000010: a664 05bd a59f c5bc b30b debc 7ce1 77bb
00000020: 7173 9e3d ee69 b7bc 389e d9bd 57c0 933d
00000030: c29a b13d a3c2 c8bd d9ba a43d 3f1b bebd
00000040: d182 b43d a6e4 cd3d 36f2 193d 9491 7b3d
00000050: 0dc1 ff3d fd02 cf3d c190 8b3b 1e9f 02be
00000060: 1f54 d1bc c256 a2bd 6ba8 09be 3d0e 813d
00000070: 1051 01be 1bfd 2b3c b534 e63d 4d56 333c
00000080: a35c e83d 8c97 c8bd c45d 203e f22e d03d
00000090: a57f 6d3d e44a 113e 6f0c 63bd c1a1 643d
000000a0: 3066 c03d 12f2 f3bd a706 d9bd 09e3 c43d
000000b0: 1405 a93d e548 b63d 40ad 093e 448b f7bd
000000c0: 85b5 f43b e085 14bd df74 d83d b763 01bc
000000d0: f1f3 5e3d d791 dd3d 5d59 dbbd df81 45be
000000e0: fc0a c73d ca8a 293d 83bb 3fbe c350 0a3e
000000f0: 57db 93bd 899f 53bd e18a 973d f3c3 e3bc
00000100: 8c69 503d 36ff b3bc 0187 963c 6f71 47bd
00000110: 72a1 063c 759c c03d 0ac0 863d c552 8cbd
00000120: d630 0c3e 4d64 08bc d5e6 0d3e 89b1 013e
00000130: c0cc 8bbd 771f 33be 6c50 2a3d fe17 62bd
00000140: 0920 81bd d547 ffbd 4d50 d03d 4abf a73d
00000150: 30f1 52bd 6b5f ebbd 4707 0e3b 9933 44bc
00000160: b1e2 473e c7d7 31bc e3b6 7fbe 7988 72bd
00000170: 57c1 5c3d 2283 b73b 0870 c93d dc37 2fbc
00000180: 6d02 a03d bd6b 0bbd 4e28 f43d cc98 de3c
00000190: c384 23be d162 ebbc 02d4 63bd 4b4c 733c
000001a0: 9d85 56be 75cf 75bd 7a47 b7bd 7899 4a3c
000001b0: dea5 2bbd 398c f6bd 6adf 21bc d04a edba
000001c0: 3081 a2bc 9a24 473d 08e9 c739 c570 85bd
000001d0: 80a2 953d c4ba b13d 5cf2 363e 80c8 7b3b
000001e0: 03a8 523d 72e3 20be be6c 3e3d 0ace 2b3d
000001f0: e712 05be e240 52bd efa9 9f3d 041e 173e
00000200: 7e7c ea3b 7a52 f33d 7522 a7bd de80 f13b
00000210: 02a2 2b3d 8b3d 8a3c c299 02be ff44 9cbd
00000220: e625 59bd e1c0 59bd cc00 f83b aab8 b33d
00000230: f005 a63d f2a4 3a3e 6125 01bd 4b20 36bd
00000240: ecb1 ed3d 9e0b 3c3d 8459 1abe 3dbb acbc
00000250: 2ae5 8abe a68d 673d ccc5 253c 1c60 923d
00000260: 8ed9 a33d f976 8e3d 30fe bbbd cbe1 363e
00000270: 6977 90be b44b 303c 6e20 d039 978d 353e
00000280: 0855 29bd d17c 61bd 73ac 05bd ccbb e4bd
00000290: a4b6 ddbd b76e 123d 0a3b b8bd 367e 06be
000002a0: 0b1a d43d 9a7d 44be ca62 1fbe 9082 a6ba
000002b0: 9dde 393e 7d50 183e c4e3 a8bc 19c2 f4bc
000002c0: 5355 56bd 2b0c 38bd 5774 18be e364 863b
000002d0: bb85 0f3d 1f75 dc3b 87d4 ca3b 206f 0cbc
000002e0: bdc2 b8bd 4dc2 293d 7293 4e3d 78f9 11bd
000002f0: 7d52 1e3e 0d8a 7dbd e7aa 39bd a4ea 0fbe
00000300: f65e 0abd 1f1d 4d3d 7744 97bd 30ab 28bd
00000310: 885f 053d 8a7d e6bd d2d0 123e 7114 5e3e
00000320: 8696 c3bd f674 d03c 2dbc 5a3e 3774 843d
00000330: ad87 29be 5f40 a1bd 1da2 c73d 5206 4b3e
00000340: 5fcc 57be 636b 4e3d baef fe3d 0285 90bd
00000350: 376d 473a d1cf e6bd e810 1c3e a370 f03b
00000360: a71f 1e3e 9e65 99bd 84dc 88bc 11af 40be
00000370: c9f6 003e 2572 ee3b 65c2 f43c 0df0 e13c
00000380: ce6a cd3c 546d 203b 76c7 5a3e b952 4e3d
00000390: 63d9 0a3e 41e4 e73d 7120 d73d 9585 d3bd
000003a0: f481 a6bd 171e ffbd 1dbd 8abd ab6f 023d
000003b0: c44a 1dbd 7dbe 923d 638a 23bb b8bc 1fbe
000003c0: 0785 a7bd d51f 983d 2460 8dbd 9100 e6bd
000003d0: 880b 353e 7ca2 28be 9aa7 1c3d 8618 62bd
000003e0: d2e8 5fbd f1b6 893d f69b 04be c451 c23c
000003f0: ee52 1dbd 1c8c 85bd 035e 883e 8e57 503e

lin5.bias f4 [100]
0.08851995 -0.03756372 -0.08796242 -0.07380285 -0.06651791 -0.039455276 -0.034762073 -0.015396492
-0.061569884 0.053134475 0.060934555 -0.07856126 -0.04792382 0.00016100642 0.09478646 0.0143561335
0.07089067 -0.0015813931 -0.07564809 0.09700495 0.064095676 -0.04544654 0.08471811 -0.070810564
0.095589735 -0.08464819 -0.018286144 -0.043058716 -0.047905944 -0.089686714 0.03721235 -0.074501455
0.063038185 -0.05527256 -0.061009195 0.07538746 0.05393166 0.0930319 0.034966826 -0.07252177
-0.0005702854 0.043106854 0.03716218 -0.017974114 -0.03590851 0.04507715 0.06732773 -0.018159183
0.09641302 0.07565385 0.031623017 -0.056483313 0.06732308 -0.00091405853 0.030509958 -0.0362526
0.06285329 0.03261862 -0.027146626 0.026755475 0.06704982 -0.08664137 0.07458268 0.08058661
0.031239795 0.011285336 -0.0800115 0.086138904 0.09138789 0.034147307 -0.07359137 0.031994633
-0.0947755 -0.03112948 0.08828789 0.06071681 0.052166346 -0.09812377 -0.044381328 0.042621914
-0.094401725 -0.034127366 -0.09124208 0.07555692 0.0036013746 0.058361746 -0.08546572 -0.07284829
-0.06940801 0.022754017 0.02142003 -0.014195778 0.0018554452 0.094656765 0.031031702 0.07465124
0.008844741 0.07308214 -0.010994362 -0.020380238
00000000: f349 b53d 6adc 19bd a425 b4bd f325 97bd
00000010: 8b3a 88bd db9b 21bd ad62 0ebd 9141 7cbc
00000020: b430 7cbd 89a3 593d 8396 793d bae4 a0bd
00000030: c44b 44bd d5d3 2839 671f c23d fd35 6b3c
00000040: 212f 913d bf46 cfba 63ed 9abd 88aa c63d
00000050: 9844 833d 2726 3abd b080 ad3d 2105 91bd
00000060: 8dc4 c33d 085c adbd d3cc 95bc 565e 30bd
00000070: 0639 44bd abad b7bd fa6b 183d 3894 98bd
00000080: 2a1a 813d 7b65 62bd c7e4 79bd be64 9a3d
00000090: 72e7 5c3d 8287 be3d 6039 0f3d 4b86 94bd
000000a0: 357f 15ba d090 303d 5f37 183d 733e 93bc
000000b0: cd14 13bd d1a2 383d 1fe3 893d 91c2 94bc
000000c0: 3074 c53d 68f0 9a3d 2387 013d 0c5b 67bd
000000d0: afe0 893d 6e9d 6fba 05f0 f93c 9b7d 14bd
000000e0: 3ab9 803d 1a9b 053d 9a62 debc 4c2e db3c
000000f0: 6b51 893d 0871 b1bd cebe 983d 980a a53d
00000100: 99ea ff3c 21e6 383c 12dd a3bd 9869 b03d
00000110: 9329 bb3d 0cde 0b3d 12b7 96bd ce0c 033d
00000120: a819 c2bd 4003 ffbc 48d0 b43d 31b2 783d
00000130: 61ac 553d 1df5 c8bd 32c9 35bd 5194 2e3d
00000140: b155 c1bd 23c9 0bbd 21dd babd 96bd 9a3d
00000150: 0a05 6c3b ba0c 6f3d a708 afbd 7c31 95bd
00000160: c925 8ebd a266 ba3c 0f79 af3c 6995 68bc
00000170: 6932 f33a 68db c13d 3236 fe3c c0e2 983d
00000180: 88e9 103c 17ac 953d b221 34bc 75f4 a6bc

lin6.weight f4 [100, 100]
0.015896862 0.07593671 -0.007875924 0.14505687 0.06585228 0.03671488 -0.04750741 -0.11014002
-0.08505698 -0.13289644 0.12704441 -0.08029502 0.13718334 -0.06439448 -0.001219526 0.04582602
0.0846587 -0.030387202 0.029096425 -0.009726665 0.181268 0.06786908 0.0011174254 0.12244874
0.009278391 -0.15284148 0.031484466 -0.21977656 0.0065062637 0.19429998 -0.08621359 -0.08794514
0.06392623 0.06521989 -0.3051409 -0.045674 -0.14934595 -0.13861224 -0.011354482 0.0028969757
-0.08045305 -0.06911353 -0.08458036 -0.110785425 -0.028198179 -0.010471468 -0.023637548 -0.12313444
-0.110503115 0.16621317 -0.0009775413 0.09415987 -0.056606267 0.104500905 -0.0059634536 -0.20793307
0.04669848 0.049053553 -0.07219642 0.089547224 -0.12010628 -0.12253318 -0.17270891 0.04054601
-0.0070040682 0.09018092 0.08933622 -0.13160759 0.27957785 -0.1424618 0.069474265 0.11539071
-0.026471455 0.04179407 -0.10644758 0.06771131 -0.058005568 -0.012353091 0.02258663 -0.019849746
-0.114905596 0.045134988 -0.0550698 0.29062432 0.123459294 -0.11139045 0.11739393 0.02894363
-0.02625378 -0.08856545 0.103491694 -0.088705264 0.026404824 -0.023792727 -0.051701397 -0.04003715
0.09251792 0.08025043 0.0054883864 -0.12289263 -0.026061742 0.013107016 -0.12996876 0.069396615
0.0025940286 -0.039261505 -0.03460755 0.087307535 0.026537348 -0.09162624 0.036238566 0.04136271
0.01107102 0.056689292 -0.09042972 -0.14853665 0.05843543 -0.1606666 -0.010870992 0.047782633
0.0825231 -0.045290504 -0.09950433 -0.04798803 0.12047871 -0.3786816 -0.10064412 0.10736466
-0.07372364 0.15208851 0.030097958 0.028217867 0.05412154 -0.0657334 -0.002622131 -0.029688245
-0.07596688 0.13308151 0.049406663 0.024781277 0.009081649 0.19378982 -0.15927534 0.06874252
0.031973556 -0.14432602 -0.0328444 0.016364915 -0.19055708 -0.121962376 0.027824823 -0.15366319
-0.06313575 -0.017167708 0.090775646 -0.13844064 -0.037494224 0.07922945 -0.12984446 0.13377836
-0.036334023 -0.058036827 -0.009960958 -0.12213658 0.03567057 -0.26655498 0.08606376 -0.02485711
-0.11091035 -0.04176271 -0.0634602 -0.052368622 0.1928112 0.101471364 0.1001478 0.046265665
0.12237754 -0.11209645 0.006430631 0.15530993 0.094649054 0.021003509 -0.056850534 -0.099680945
0.0790209 0.034854062 0.061016418 -0.01425279 0.20412612 -0.12571798 -0.114806 -0.017887058
-0.017437652 -0.100742176 0.08940836 0.12304017 0.129365 -0.006809853 -0.008659675 0.12874995
0.110989794 -0.05447828 -0.0494264 0.13717723 -0.032507133 0.29899454 -0.021618761 -0.030090414
0.04862828 -0.12166359 0.09066762 -0.030423481 -0.088398576 -0.042919952 -0.1617395 0.038149472
0.062132332 -0.033810332 -0.12977162 0.12079407 -0.09882951 -0.10568526 0.033394884 0.101705864
0.024393156 0.050122187 0.11376277 -0.06345626 0.09214369 0.04539715 0.044695817 -0.27683145
0.055425655 0.12534703 0.006583587 0.047724 -0.14315268 -0.04846514 -0.08885462 0.21785364
-0.15832631 0.06993312 0.13079502 0.07293847 -0.092928335 -0.0798301 -0.08067525 0.13370176
-0.032751486 -0.1390459 0.0029916947 -0.1729794 -0.118117526 -0.03257729 0.07739669 -0.19207904
00000000: 233a 823c b584 9b3d 050a 01bc ca89 143e
00000010: 8fdd 863d 5862 163d 2197 42bd 1791 e1bd
00000020: 5b32 aebd 0116 08be ee17 023e b771 a4bd
00000030: ca79 0c3e 41e1 83bd 81d8 9fba 11b4 3b3d
00000040: 8a61 ad3d 95ee f8bc a05b ee3c 975c 1fbc
00000050: 529e 393e f2fe 8a3d 9376 923a 68c6 fa3d
00000060: 6404 183c 7a82 1cbe dbf5 003d 1b0d 61be
00000070: 7f32 d53b 93f6 463e c090 b0bd 951c b4bd
00000080: c1eb 823d 0192 853d 6e3b 9cbe a914 3bbd
00000090: 25ee 18be 5ef0 0dbe 2608 3abc 30db 3d3b
000000a0: 92c4 a4bd 658b 8dbd 7838 adbd 78e3 e2bd
000000b0: deff e6bc 8590 2bbc 88a3 c1bc e92d fcbd
000000c0: 754f e2bd c933 2a3e d820 80ba e4d6 c03d
000000d0: f9db 67bd 9204 d63d 1369 c3bb 68ec 54be
000000e0: e846 3f3d 61ec 483d b7db 93bd 8964 b73d
000000f0: 48fa f5bd adf2 fabd 9bda 30be 9313 263d
00000100: 6282 e5bb c6b0 b83d e8f5 b63d 24c4 06be
00000110: d424 8f3e 82e1 11be 8648 8e3d f751 ec3d
00000120: aada d8bc 4230 2b3d 3001 dabd 3aac 8a3d
00000130: 3f97 6dbd 9e64 4abc 9907 b93c ef9b a2bc
00000140: a053 ebbd 77df 383d df90 61bd b6cc 943e
00000150: 3ad8 fc3d ad20 e4bd 3b6c f03d 311b ed3c
00000160: 2b12 d7bc cd61 b5bd 74f3 d33d 1bab b5bd
00000170: ee4e d83c f7e8 c2bc d8c4 53bd fffd 23bd
00000180: 097a bd3d 565a a43d ecd7 b33b 22af fbbd
00000190: 6f7f d5bc cfbe 563c 8816 05be d01f 8e3d
000001a0: 9400 2a3b acd0 20bd a5c0 0dbd 4bce b23d
000001b0: da64 d93c 8aa6 bbbd e46e 143d f26b 293d
000001c0: 3963 353c 0833 683d 3833 b9bd fe19 18be
000001d0: fd59 6f3d c985 24be 3f1c 32bc b9b7 433d
000001e0: df01 a93d 8982 39bd edc8 cbbd 198f 44bd
000001f0: 8bbd f63d 8ee2 c1be 811e cebd 01e2 db3d
00000200: 6bfc 96bd 17bd 1b3e fe8f f63c 2829 e73c
00000210: 8cae 5d3d 3c9f 86bd 0fd8 2bbb c334 f3bc
00000220: 8694 9bbd 8546 083e a45e 4a3d 1b02 cb3c
00000230: 32cb 143c d770 463e 1319 23be e1c8 8c3d
00000240: b4f6 023d 33ca 13be d987 06bd b70f 863c
00000250: 6521 43be 69c7 f9bd e2f0 e33c e259 1dbe
00000260: 514d 81bd 4ba3 8cbc 95e8 b93d 62c3 0dbe
00000270: 8b93 19bd 0d43 a23d f2f5 04be 32fd 083e
00000280: fcd2 14bd 06b8 6dbd 4933 23bc be22 fabd
00000290: 4e1b 123d e579 88be 3242 b03d 23a1 cbbc
000002a0: f724 e3bd 600f 2bbd 6cf7 81bd 7b80 56bd
000002b0: 4d70 453e 38d0 cf3d 4a1a cd3d 1181 3d3d
000002c0: 13a1 fa3d d392 e5bd 0bb8 d23b 9109 1f3e
000002d0: 5dd7 c13d 8d0f ac3c 1bdc 68bd 8625 ccbd
000002e0: b6d5 a13d 22c3 0e3d 5aec 793d 8984 69bc
000002f0: 7006 513e 37bc 00be 681f ebbd e187 92bc
00000300: 68d9 8ebc ea51 cebd bb1b b73d 7cfc fb3d
00000310: 4278 043e 3025 dfbb 4fe1 0dbc 07d7 033e
00000320: 9e4e e33d 9e24 5fbd 5673 4abd 3078 0c3e
00000330: 3326 05bd d015 993e d419 b1bc 2c80 f6bc
00000340: 732e 473d c32a f9bd f2af b93d aa3a f9bc
00000350: 500a b5bd d5cc 2fbd 0a9f 25be 9f42 1c3d
00000360: 797e 7e3d b47c 0abd dae2 04be e262 f73d
00000370: 2067 cabd 8371 d8bd 13c9 083d 2a4b d03d
00000380: 28d4 c73c ec4c 4d3d 75fc e83d 5bf5 81bd
00000390: d5b5 bc3d 5df2 393d f612 373d dabc 8dbe
000003a0: 0306 633d f95a 003e 21bb d73b 3e7a 433d
000003b0: 9e96 12be 6283 46bd 69f9 b5bd 0615 5f3e
000003c0: 4b20 22be 1839 8f3d 21ef 053e c460 953d
000003d0: 3651 bebd f77d a3bd 1139 a5bd 1de9 083e
000003e0: 6c26 06bd 0c62 0ebe 4f10 443b 8321 31be
000003f0: 9ae7 f1bd c46f 05bd 2882 9e3d 5eb0 44be
