helmholtz/params_pinns.pth (torch, 208075 bytes, 13 tensors)

lin1.weight f4 [100, 2]
-0.21082227 -0.10906892 0.29255933 -0.0687741 0.035211995 -0.09170815 -0.26622364 -0.17725125
0.10604684 0.14878422 0.2752338 0.106223054 -0.050638765 0.033672225 0.08919902 0.20955084
0.045792606 0.19809511 0.18194565 0.01527615 0.25486034 -0.08494046 -0.108177505 -0.15491399
-0.035874743 0.024802804 0.16117471 -0.21316491 0.18337698 -0.06273991 0.0105672665 -0.031099753
-0.19430926 0.5615656 -0.020886952 0.0045737573 0.14400011 0.1886544 -0.10334224 -0.0574848
0.25711986 -0.03187383 0.26373154 0.04736014 0.041295275 -0.3130861 0.05689229 -0.3534347
0.2690382 -0.045448367 0.33093783 -0.099338226 -0.07666235 0.1655879 -0.023271073 0.15466158
-0.032310013 -0.010622007 -0.16375738 -0.05114714 -0.16438435 -0.026469516 -0.11096578 -0.16209958
0.07954581 -0.10570841 -0.041511714 -0.15340485 0.059033457 0.20686351 0.14032595 -0.10493295
-0.13818023 0.042612076 -0.08253026 0.1847801 -0.0145585425 0.056032795 0.10316586 -0.09369782
-0.15227593 0.03928461 -0.08409684 -0.11900297 -0.2945866 0.06102158 -0.3111119 -0.047059406
0.08618601 0.22241627 -0.3020006 0.14488435 0.14208144 -0.058091227 -0.010737064 0.07659179
0.15617499 0.09170221 -0.17809582 0.111912094 -0.041608233 -0.07802773 0.047746353 0.17264196
-0.13880116 0.020172445 0.078460574 -0.18666132 0.13857225 0.18196958 0.071705125 0.27932703
0.08541216 -0.061838895 -0.15119514 -0.12002132 -0.020237258 0.12487762 0.10787719 0.25085196
0.012388142 0.047751546 -0.122226804 -0.1351582 -0.19314405 0.24034996 0.004012761 0.2405466
-0.075661585 0.08691609 0.162663 0.035127126 0.17520522 0.13114478 -0.0852318 0.015320221
0.13584925 0.105624616 0.063898526 -0.21752487 -0.22982873 0.19412196 0.093198836 0.053768776
0.08282198 -0.09748411 -0.04465083 -0.2783169 0.14727813 0.11462989 -0.02782539 0.15964358
0.21805309 -0.07390064 0.1901936 0.07426691 0.08397704 -0.29563946 0.04036745 -0.22035167
-0.0010066195 -0.10464166 0.096960865 -0.019202724 -0.20006344 0.124256454 -0.26907393 -0.03312333
0.018439274 0.09638055 -0.04491638 0.08607203 0.078463614 0.24905343 0.14506257 -0.18385121
-0.0020763357 -0.02469192 0.04873518 -0.20720722 0.1493885 0.014617864 0.1466605 0.2774987
-0.004552961 0.10515252 -0.17795086 -0.03869642 -0.16444455 0.059639134 -0.068394385 -0.05676171
0.14619902 -0.018832823 0.09770173 -0.07839309 0.0476023 -0.12130117 -0.07686473 -0.07533742
00000000: cbe1 57be 875f dfbd 56ca 953e 6fd9 8cbd
00000010: 743a 103d 7cd1 bbbd 774e 88be 5a81 35be
00000020: 162f d93d e45a 183e 72eb 8c3e 798b d93d
00000030: 986a 4fbd e3eb 093d faad b63d 7f94 563e
00000040: 0791 3b3d 72d9 4a3e f64f 3a3e d148 7a3c
00000050: 0e7d 823e 44f5 adbd 2b8c ddbd c6a1 1ebe
00000060: 65f1 12bd 402f cb3c fc0a 253e e747 5abe
00000070: 2dc7 3b3e c87d 80bd 5422 2d3c e9c4 febc
00000080: 02f9 46be c3c2 0f3f 1d1b abbc 75df 953b
00000090: c474 133e 9e2e 413e 19a5 d3bd 2f75 6bbd
000000a0: 37a5 833e 228e 02bd d207 873e b5fc 413d
000000b0: 3c25 293d d24c a0be e407 693d 65f5 b4be
000000c0: 60bf 893e 1128 3abd af70 a93e d771 cbbd
000000d0: 2601 9dbd e08f 293e faa2 bebc 9b5f 1e3e
000000e0: 8157 04bd ed07 2ebc 04b0 27be aa7f 51bd
000000f0: 5f54 28be 99d6 d8bc 0742 e3bd 6ffd 25be
00000100: eae8 a23d a77d d8bd 3008 2abd 2916 1dbe
00000110: 11cd 713d 07d4 533e 9bb1 0f3e 16e7 d6bd
00000120: 1e7f 0dbe 008a 2e3d a005 a9bd ff36 3d3e
00000130: f486 6ebc a582 653d 9f48 d33d a5e4 bfbd
00000140: 39ee 1bbe e6e8 203d f73a acbd d4b7 f3bd
00000150: 0ed4 96be c4f1 793d 0f4a 9fbe 5dc1 40bd
00000160: 4a82 b03d 17c1 633e d39f 9abe 905c 143e
00000170: cc7d 113e 11f1 6dbd 83ea 2fbc 28dc 9c3d
00000180: 56ec 1f3e 5ece bb3d c05e 36be 2b32 e53d
00000190: 656d 2abd 01cd 9fbd ae91 433d 0ec9 303e
000001a0: e421 0ebe af40 a53c f0af a03d 2524 3fbe
000001b0: e2e5 0d3e 3c56 3a3e 23da 923d f403 8f3e
000001c0: 92ec ae3d c84a 7dbd e6d2 1abe bdcd f5bd
000001d0: 9bc8 a5bc d6bf ff3d b7ee dc3d ab6f 803e
000001e0: a2f7 4a3c 2097 433d 0c52 fabd e966 0abe
000001f0: 8ec7 45be 4d1e 763e 7b7d 833b d951 763e
00000200: 76f4 9abd 1001 b23d 2191 263e 76e1 0f3d
00000210: ff68 333e d14a 063e 038e aebd aa01 7b3c
00000220: 111c 0b3e b851 d83d 3bdd 823d d7be 5ebe
00000230: 3958 6bbe e8c7 463e 08df be3d a63c 5c3d
00000240: 929e a93d c0a5 c7bd cae3 36bd 8d7f 8ebe
00000250: 14d0 163e 13c3 ea3d 13f2 e3bc 9b79 233e
00000260: 4f49 5f3e 3859 97bd 1cc2 423e 4019 983d
00000270: 28fc ab3d 0e5e 97be 5758 253d dea3 61be
00000280: 8cf0 83ba 5e4e d6bd 6b93 c63d 084f 9dbc
00000290: 6edd 4cbe 2b7a fe3d 0fc4 89be 54ac 07bd
000002a0: f60d 973c 2a63 c53d 3dfa 37bd 8846 b03d
000002b0: 88b1 a03d dd07 7f3e 488b 143e 7e43 3cbe
000002c0: 2213 08bb b646 cabc 8a9e 473d 212e 54be
000002d0: 4df9 183e c47f 6f3c 2c2e 163e 4f14 8e3e
000002e0: 0131 95bb 345a d73d c038 36be 2380 1ebd
000002f0: 2764 28be 2a48 743d 5b12 8cbd f87e 68bd
00000300: 32b5 153e 4b47 9abc d817 c83d 8e8c a0bd
00000310: a1fa 423d bf6c f8bd 416b 9dbd 814a 9abd

lin1.bias f4 [100]
0.48146462 -0.4708252 0.44264665 0.49308175 -0.08236719 -0.44344115 -0.26779535 -0.1667121
0.6471029 -0.5504574 0.5630688 0.2085495 -0.657412 -0.34127554 0.38423714 0.34984997
-0.54487365 -0.42037612 0.06406996 -0.6187693 -0.088952266 0.3961226 0.42331702 0.4342991
0.1792135 0.33838734 -0.6347353 0.571442 0.56753653 0.4404739 -0.19029135 -0.26113063
-0.53776 -0.41437295 -0.5080076 -0.6988987 0.5486504 0.22337392 -0.1388377 0.22829838
0.24583724 -0.10427239 -0.16789065 0.0731036 -0.12793155 -0.19036128 0.30248368 -0.33215594
-0.37140074 -0.063555464 -0.6862319 0.22844975 -0.5659035 -0.47611183 -0.02306559 0.55431706
0.20721884 0.52982306 0.415843 -0.18269175 0.29450795 -0.0754028 -0.27016848 -0.36307487
-0.544235 -0.22593234 0.6095161 0.22687897 -0.24016374 0.07629722 0.45296088 -0.6820811
0.4407902 -0.33359846 0.074711874 -0.4142262 0.026684215 -0.45877904 -0.6094935 -0.12533699
0.27245694 -0.086116776 -0.6213513 -0.5832235 0.35524166 0.58202595 -0.4168729 -0.101104245
0.58619016 -0.61139446 -0.5268517 -0.37646362 0.5231157 -0.1639102 -0.14801505 -0.22539833
-0.4365273 -0.4524714 0.2934778 0.6778788
00000000: 8882 f63e 0010 f1be 95a2 e23e 3675 fc3e
00000010: 21b0 a8bd b80a e3be 791c 89be 94b6 2abe
00000020: 89a8 253f c7ea 0cbf 4725 103f 008e 553e
00000030: 274c 28bf abbb aebe bbba c43e 891f b33e
00000040: d77c 0bbf 8a3b d7be 1c37 833d aa67 1ebf
00000050: 9b2c b6bd 95d0 ca3e 02bd d83e 745c de3e
00000060: be83 373e 1b41 ad3e 037e 22bf 064a 123f
00000070: 134a 113f cc85 e13e bcdb 42be eab2 85be
00000080: a4aa 09bf b128 d4be c90c 02bf 06eb 32bf
00000090: 5a74 0c3f 22bc 643e 782b 0ebe 0dc7 693e
000000a0: c2bc 7b3e c38c d5bd 87eb 2bbe 57b7 953d
000000b0: 7d00 03be 11ee 42be 24df 9a3e 5810 aabe
000000c0: 3d28 bebe 5e29 82bd e5ac 2fbf bbee 693e
000000d0: 0ddf 10bf eec4 f3be 0cf4 bcbc b9e7 0d3f
000000e0: 2d31 543e 7ca2 073f 60e9 d43e 8c13 3bbe
000000f0: bfc9 963e c96c 9abd 8653 8abe f3e4 b9be
00000100: fc52 0bbf cf5a 67be 3f09 1c3f f652 683e
00000110: 7ced 75be b841 9c3d 7dea e73e de9c 2ebf
00000120: 41af e13e 6bcd aabe 8a02 993d 7515 d4be
00000130: db98 da3c 16e5 eabe c407 1cbf 5758 00be
00000140: 7a7f 8b3e fe5d b0bd e110 1fbf 234e 15bf
00000150: 3ce2 b53e a7ff 143f 5d70 d5be be0f cfbd
00000160: 8f10 163f 5984 1cbf c1df 06bf d7bf c0be
00000170: e9ea 053f 13d8 27be 4291 17be d2ce 66be
00000180: 8280 dfbe 55aa e7be b942 963e 7789 2d3f

lin2.weight f4 [100, 100]
-0.06288131 -0.05007337 -0.07513209 0.03556688 -0.023590686 -0.106143594 -0.051417984 -0.024877213
0.0017270569 -0.10851785 0.17460173 -0.093197994 0.14948133 -0.17021228 -0.11442548 -0.19551787
0.016892195 -0.031261913 -0.022436723 -0.08568601 0.1066216 0.23001197 0.014548147 0.008685145
0.12681924 0.0705682 -0.12326873 -0.03756563 -0.08291891 -0.19168153 -0.011345153 -0.17865744
-0.025174327 -0.16197346 0.020429293 -0.17963576 -0.12447835 0.045274038 -0.09951723 0.0015325841
-0.10196995 0.058245663 -0.09599519 -0.02788768 0.025854802 0.04306759 0.08500155 0.0042302716
0.023862766 0.042841744 0.1897989 0.0347485 0.0074451687 -0.121208616 0.1222237 -0.17555395
-0.026733812 -0.037454084 -0.048241146 0.023770636 -0.07267271 0.089691825 -0.08274634 -0.082579345
0.0334749 0.24021782 -0.057751335 -0.17937618 0.014831305 -0.13312458 0.108597204 0.027018411
-0.07565737 0.118390925 0.06117555 0.106961094 0.07338874 -0.10279193 -0.16704482 0.13722755
-0.14021435 -0.107522696 0.12716171 -0.07564226 0.011664487 0.083145685 0.051320545 -0.15176988
-0.101075485 0.034796897 -0.12327635 0.07574126 0.12977622 -0.076194726 0.13898782 0.030386053
-0.16259468 0.06773884 -0.14339294 -0.19654424 0.15710932 0.02007116 -0.1175886 0.12183775
-0.091001004 -0.19457424 -0.0062913066 -0.11066873 -0.1690609 -0.109732345 0.16038722 -0.085393034
0.1990982 0.022736603 0.033422925 -0.27293256 -0.18198594 -0.07941897 0.021540785 0.10290729
0.12832685 -0.03092144 0.044913825 -0.04369143 -0.1486298 -0.1064775 -0.090100266 -0.1083602
0.03970453 0.10719803 -0.026626479 -0.03885351 0.0360924 0.053504072 0.012974228 -0.09646055
0.0060897223 -0.005237272 -0.1442354 0.05833018 -0.19497083 0.13940491 0.06269032 0.16172613
-0.06900633 0.000618061 -0.023777 0.02876413 0.13140774 -0.02368197 -0.06642506 -0.043264743
0.0029361667 -0.038843755 0.02168963 0.04070541 0.21213816 -0.011607898 0.1757217 -0.036869846
-0.016081823 -0.07466357 -0.009697806 0.18695456 -0.06392442 -0.12827863 0.08116252 -0.0909396
-0.023187757 0.013805139 -0.0977636 -0.10037918 -0.059092645 0.27729458 0.008083567 -0.07388075
0.013512437 -0.043252464 -0.094387576 -0.022848796 -0.110580035 -0.06694382 -0.1430025 -0.09834408
-0.059403904 -0.05517582 -0.07775867 -0.06420169 -0.047368422 -0.003632349 -0.02457379 -0.14646994
-0.10044151 0.057494808 0.08233692 -0.011912929 0.023478648 -0.030813612 0.00824027 0.058395777
0.10826799 0.1074977 0.114325635 0.12940647 -0.13182844 0.100366876 0.05816825 0.07713163
-0.114057496 -0.07065191 -0.06862368 -0.12886827 -0.033601426 -0.13190661 -0.052230563 -0.2321945
-0.10358836 -0.014327917 -0.118877575 -0.026062729 -0.048207946 0.047542043 -0.099449776 0.027293554
0.06311398 0.15350129 -0.14656001 -0.04894662 -0.02739832 -0.0046810033 0.08768645 0.096641995
0.044723604 -0.14223357 -0.2185971 0.030205334 -0.11570628 0.18259645 0.13641639 0.0119987
-0.013625613 -0.024929287 0.008962981 0.1987658 -0.16624469 -0.038163517 0.0058157383 0.041054595
0.11497143 0.025631208 -0.04627392 -0.039227467 -0.03072284 -0.07278079 0.069412015 -0.049838647
00000000: ebc7 80bd bc19 4dbd dade 99bd 94ae 113d
00000010: 4141 c1bc d061 d9bd aa9b 52bd 4ccb cbbc
00000020: 6a5e e23a 9b3e debd ccca 323e 97de bebd
00000030: a211 193e 214c 2ebe e857 eabd d635 48be
00000040: 8061 8a3c 7e0c 00bd 38cd b7bc 267c afbd
00000050: 6d5c da3d 4288 6b3e 5a5b 6e3c 234c 0e3c
00000060: e7dc 013e 0f86 903d 5174 fcbd 6bde 19bd
00000070: 64d1 a9bd 2a48 44be 05e1 39bc faf1 36be
00000080: 643a cebc 5fdc 25be 555b a73c 70f2 37be
00000090: 81ee febd 4571 393d b1cf cbbd fde0 c83a
000000a0: 9fd5 d0bd 0193 6e3d 2099 c4bd b474 e4bc
000000b0: 73cd d33c a467 303d 4b15 ae3d 179e 8a3b
000000c0: d97b c33c d37a 2f3d a55a 423e 7154 0e3d
000000d0: 9af6 f33b 393c f8bd 6b50 fa3d 6ac4 33be
000000e0: de00 dbbc 7469 19bd 8298 45bd a3ba c23c
000000f0: 6ed5 94bd 59b0 b73d ea76 a9bd 5c1f a9bd
00000100: fa1c 093d a9fb 753e aa8c 6cbd 64ae 37be
00000110: 00ff 723c cf51 08be 3668 de3d b755 dd3c
00000120: 40f2 9abd f176 f23d 3793 7a3d 6b0e db3d
00000130: d64c 963d 9384 d2bd cc0d 2bbe 6185 0c3e
00000140: 5a94 0fbe dc34 dcbd ae36 023e 54ea 9abd
00000150: 681c 3f3c 4948 aa3d 7e35 523d 9069 1bbe
00000160: aa00 cfbd 3187 0e3d 5078 fcbd 3c1e 9b3d
00000170: 0fe4 043e fb0b 9cbd d352 0e3e 2cec f83c
00000180: 387f 26be a9ba 8a3d 99d5 12be e542 49be
00000190: 44e1 203e 466c a43c 4bd2 f0bd 1286 f93d
000001a0: bc5e babd 783e 47be 4e27 cebb 4aa6 e2bd
000001b0: 4d1e 2dbe 5abb e0bd 8c3c 243e 8be2 aebd
000001c0: 66e0 4b3e 1d42 ba3c 7ae6 083d d1bd 8bbe
000001d0: 865a 3abe 6aa6 a2bd 4d76 b03c 0fc1 d23d
000001e0: 1d68 033e f64e fdbc 8ff7 373d c9f5 32bd
000001f0: 6932 18be e010 dabd 7d86 b8bd f4eb ddbd
00000200: 38a1 223d a48a db3d c61f dabc dc24 1fbd
00000210: a0d5 133d 1627 5b3d db91 543c 1c8d c5bd
00000220: 4b8c c73b 6c9d abbb 72b2 13be a0eb 6e3d
00000230: 6fa6 47be 29c0 0e3e c863 803d 899b 253e
00000240: 3153 8dbd 5f05 223a fcc7 c2bc c1a2 eb3c
00000250: c08f 063e b100 c2bc dd09 88bd 5f36 31bd
00000260: b46c 403b a11a 1fbd 73ae b13c b7ba 263d
00000270: bf3a 593e 0e2f 3ebc 64f0 333e d604 17bd
00000280: 07be 83bc 37e9 98bd 8ce3 1ebc 0471 3f3e
00000290: ceea 82bd 795b 03be 8938 a63d 8a3e babd
000002a0: 40f4 bdbc f32e 623c 4838 c8bd 9993 cdbd
000002b0: 210b 72bd 8ef9 8d3e f070 043c ca4e 97bd
000002c0: 4563 5d3c 7f29 31bd 464e c1bd 662d bbbc
000002d0: c977 e2bd d719 89bd 3f6f 12be 9f68 c9bd
000002e0: 8251 73bd 0a00 62bd f03f 9fbd 2d7c 83bd
000002f0: 6405 42bd b40c 6ebb f94e c9bc 37fc 15be
00000300: 47b4 cdbd ad7f 6b3d 42a0 a83d 722e 43bc
00000310: 4b56 c03c d46c fcbc 3302 073c 6930 6f3d
00000320: 9cbb dd3d c127 dc3d 8f23 ea3d 2183 043e
00000330: 09fe 06be 268d cd3d d541 6e3d 30f7 9d3d
00000340: fa96 e9bd f3b1 90bd 928a 8cbd 0bf6 03be
00000350: a6a1 09bd 8712 07be b7ef 55bd 65c4 6dbe
00000360: 2226 d4bd a4bf 6abc 1676 f3bd 8181 d5bc
00000370: b275 45bd 72bb 423d 53ac cbbd bb96 df3c
00000380: e741 813d 712f 1d3e d413 16be 407c 48bd
00000390: 7172 e0bc 1a63 99bb f494 b33d 3dec c53d
000003a0: 1930 373d ada5 11be ebd7 5fbe 2d71 f73c
000003b0: 6af7 ecbd 90fa 3a3e bdb0 0b3e 3296 443c
000003c0: f73d 5fbc 8138 ccbc 78d9 123c 4389 4b3e
000003d0: 0c3c 2abe 5951 1cbd f391 be3b dd28 283d
000003e0: 2476 eb3d 8af8 d13c b989 3dbd fbac 20bd
000003f0: 77ae fbbc 180e 95bd e327 8e3d 9c23 4cbd

lin2.bias f4 [100]
-0.10104119 0.10133348 -0.024358999 0.0405059 -0.051990245 0.009183276 0.024421418 0.088201985
0.0287139 -0.08114139 -0.02381941 0.0721075 0.01797524 -0.09227136 0.107928894 -0.03461805
-0.055858575 0.03638317 0.04786012 -0.023360256 -0.08819399 -0.023391047 -0.008680555 0.09923262
0.0017516738 -0.014291475 -0.057129145 -0.09164998 -0.041938536 0.07880986 -0.063073136 -0.007843664
0.0016898168 0.0006573631 -0.08691902 0.020109653 -0.08149812 -0.053593505 0.024824835 -0.02784136
-0.05097371 -0.087562226 0.07418866 -0.0500116 -0.07074356 0.0128498105 0.05901149 -0.02277698
0.09639805 -0.06434219 -0.037759986 0.019737775 -0.0050194613 -0.097043574 -0.048905827 -0.028041435
0.055735342 -0.04531714 0.015805688 0.06439692 -0.013546571 0.0611077 0.09019182 0.085906915
0.06606131 0.06831229 -0.07182044 -0.009753117 -0.07053887 -0.013898696 0.05521639 0.0011233141
0.000574619 0.036545273 0.0016388813 0.04398286 -0.058752187 0.066350155 0.06941689 -0.09998283
0.023714114 0.016464034 -0.020567684 -0.07363622 0.07849202 0.063720964 -0.035302036 0.03216964
-0.08967694 0.08569919 0.062547304 0.060876075 -0.048706774 -0.0034231618 -0.082327545 -0.082610056
0.00042210487 0.06934444 -0.004755624 0.09226271
00000000: afee cebd ed87 cf3d 868c c7bc 84e9 253d
00000010: b9f3 54bd 7475 163c 6d0f c83c 3ea3 b43d
00000020: 6a39 eb3c 752d a6bd ec20 c3bc 19ad 933d
00000030: cf40 933c c4f8 bcbd d309 dd3d a8cb 0dbd
00000040: f6cb 64bd 8506 153d f908 443d 025e bfbc
00000050: 0d9f b4bd 959e bfbc e338 0ebc 793a cb3d
00000060: 6b98 e53a ca26 6abc 4000 6abd fcb2 bbbd
00000070: bec7 2bbd 1067 a13d 7d2c 81bd b682 00bc
00000080: d87c dd3a e452 2c3a 9902 b2bd 00bd a43c
00000090: 7de8 a6bd dd84 5bbd 745d cb3c 9013 e4bc
000000a0: cfc9 50bd d353 b3bd 39f0 973d f7d8 4cbd
000000b0: 00e2 90bd 0388 523c 08b6 713d ca96 babc
000000c0: 576c c53d d7c5 83bd 37aa 1abd 1db1 a13c
000000d0: 4b7a a4bb c8be c6bd 7a51 48bd 27b7 e5bc
000000e0: be4a 643d 779e 39bd ee7a 813c 88e2 833d
000000f0: 70f2 5dbc 114c 7a3d 7db6 b83d f7ef af3d
00000100: 274b 873d 50e7 8b3d 9816 93bd 8acb 1fbc
00000110: af76 90bd 5bb7 63bc 952a 623d 2b3c 933a
00000120: 07a2 163a 7fb0 153d bbcf d63a 5f27 343d
00000130: 22a6 70bd 97e2 873d 712a 8e3d ccc3 ccbd
00000140: 1a44 c23c 95df 863c 8f7d a8bc 96ce 96bd
00000150: 6dc0 a03d 2380 823d de98 10bd 50c4 033d
00000160: 8ba8 b7bd 0f83 af3d cd18 803d 3159 793d
00000170: c180 47bd 2057 60bb 589b a8bd 762f a9bd
00000180: f54d dd39 7504 8e3d 11d5 9bbb 3bf4 bc3d

lin3.weight f4 [100, 100]
-0.00871663 0.13552539 0.13759851 0.022501703 -0.03896132 -0.12816313 0.017579995 -0.06571173
-0.07437056 0.09961178 0.035085067 0.12498849 0.02646141 -0.17169532 -0.121163465 -0.09518849
0.013557265 0.08001298 0.13878083 -0.01761608 0.10745207 0.021884784 -0.032477494 -0.03628698
0.0068882285 0.0629851 -0.13840108 -0.010397383 -0.061345123 0.15816858 0.06624243 0.03111436
-0.09937747 -0.06853006 0.06922367 -0.0736999 0.10212401 -0.08749916 -0.06377163 -0.016857356
-0.085752875 -0.06932516 -0.05644195 -0.0012286549 -0.024401242 -0.04643005 -0.12720886 0.280981
-0.15089431 0.08105917 -0.23661178 0.0155522125 -0.11758636 -0.036678847 0.025843566 -0.01844576
-0.18542342 -0.13668375 0.107217275 -0.19734988 -0.022843197 0.01705352 0.05343199 0.12211803
0.058660842 0.02712048 -0.05233356 -0.02599731 -0.08154629 -0.062232252 -0.193013 -0.017980404
0.0021758955 0.08605444 0.16329217 0.0066164644 0.2665886 0.2590533 -0.158697 0.007389543
0.13951164 0.0462128 0.093553826 -0.024890352 -0.016012376 0.13022727 0.0009878126 -0.16537955
0.1323112 0.13370204 0.13411658 0.06006351 -0.013734107 -0.10911124 0.05197841 -0.0073437374
0.02918151 0.07036218 0.058331195 -0.05166486 -0.021384766 -0.13644566 -0.032473214 -0.036585547
0.0663849 0.0153392935 -0.034503415 -0.04499781 0.014716714 -0.081429094 -0.018454842 0.0066406787
0.069872886 0.10247437 0.07577158 -0.12832803 -0.03393618 -0.058754995 -0.017138392 -0.12586203
-0.20972884 -0.11540126 -0.0006285027 0.09801251 -0.11206618 0.038684852 0.19119136 0.23780483
-0.069165915 0.18293692 -0.16916707 0.032998152 0.15458694 0.10672273 -0.0037709414 -0.18841615
-0.0907599 0.08929857 -0.03634185 0.014537976 -0.054156814 0.19398588 0.044409018 -0.118316695
-0.1227036 -0.00078616315 0.038043838 -0.08267436 -0.09771706 -0.18540572 0.2040781 -0.018021794
0.18231092 0.015922865 -0.21823797 0.1469577 -0.056363866 0.061186098 -0.00039210072 0.115007035
0.12818778 0.0009784405 -0.069082215 -0.18965581 -0.015778013 -0.13201429 0.059634257 0.013707651
-0.053246062 -0.18442948 -0.12936258 -0.17124344 -0.021636374 0.06823326 0.14011012 -0.049027234
-0.023523776 -0.08768273 -0.08542303 -0.032362208 -0.06984577 -0.035155993 0.15170033 0.011317098
-0.03879251 0.063646 0.19738838 -0.13429664 0.037474893 0.001768206 0.0685841 0.059180006
-0.039870698 0.15175264 -0.018250147 0.13092737 -0.105698004 -0.07739668 0.06421543 0.20315279
-0.068977095 0.10293262 0.16481575 0.0696768 0.14527 0.123202845 0.03545716 -0.10952963
0.065651916 -0.115786426 0.052552663 -0.045151226 0.06300276 0.06571955 -0.17436974 -0.049536075
0.06752799 -0.076388605 0.006574429 -0.047260854 0.10342276 -0.052638996 0.09618596 -0.15595815
-0.12684514 0.027535548 -0.040877108 -0.0736236 -0.07589195 -0.071649484 -0.0141448 -0.17784321
0.039452627 0.096162945 0.051410224 0.1999087 -0.09785294 -0.012288195 0.0594698 -0.1699647
-0.13977636 -0.09448196 0.01091756 -0.08457489 -0.09101278 0.043026593 0.025879847 -0.10336863
0.05829418 0.09325553 -0.09370187 -0.0030490353 0.09628832 -0.1534122 0.053913716 -0.01429304
00000000: 32d0 0ebc 2bc7 0a3e a0e6 0c3e 7e55 b83c
00000010: e895 1fbd 323d 03be ec03 903c df93 86bd
00000020: 984f 98bd 4301 cc3d 5cb5 0f3d f7f9 ff3d
00000030: 99c5 d83c e6d0 2fbe 8d24 f8bd 2ff2 c2bd
00000040: 4a1f 5e3c d8dd a33d 901c 0e3e 994f 90bc
00000050: d50f dc3d b847 b33c 1f07 05bd a8a1 14bd
00000060: a6b6 e13b 55fe 803d 03b9 0dbe c959 2abc
00000070: 0645 7bbd f2f6 213e 1caa 873d 8be3 fe3c
00000080: 6a86 cbbd 7d59 8cbd 24c5 8d3d f9ef 96bd
00000090: 6526 d13d c232 b3bd b39a 82bd 7018 8abc
000000a0: 349f afbd 59fa 8dbd ad2f 67bd d10a a1ba
000000b0: 1de5 c7bc 702d 3ebd 0a43 02be bedc 8f3e
000000c0: 0a84 1abe 5a02 a63d 5c4a 72be b5ce 7e3c
000000d0: 1ed1 f0bd 8f3c 16bd e3b5 d33c 901b 97bc
000000e0: a3df 3dbe d3f6 0bbe bb94 db3d 1616 4abe
000000f0: a821 bbbc d3b3 8b3c 81db 5a3d 0519 fa3d
00000100: 5a46 703d c52b de3c b75b 56bd 50f8 d4bc
00000110: be01 a7bd 3fe7 7ebd 33a5 45be a44b 93bc
00000120: 7899 0e3b 4f3d b03d 1036 273e edce d83b
00000130: 4d7e 883e a2a2 843e 7781 22be fb23 f23b
00000140: 24dc 0e3e a249 3d3d 2699 bf3d dae6 cbbc
00000150: 632c 83bc 4c5a 053e 7e79 813a 4259 29be
00000160: 967c 073e 30e9 083e db55 093e 2805 763d
00000170: 0505 61bc b775 dfbd 50e7 543d bca3 f0bb
00000180: 100e ef3c 0c1a 903d b1ec 6e3d 889e 53bd
00000190: 1b2f afbc 69b8 0bbe a202 05bd bada 15bd
000001a0: cef4 873d a951 7b3c 7453 0dbd a04f 38bd
000001b0: 5f1e 713c 4cc4 a6bd 9c2e 97bc 0d9a d93b
000001c0: 8419 8f3d 15de d13d 212e 9b3d 6c68 03be
000001d0: aa00 0bbd 14a9 70bd d065 8cbc fae1 00be
000001e0: 28c3 56be 7f57 ecbd 1ac2 24ba c8ba c83d
000001f0: f482 e5bd 0274 1e3d abc7 433e 1c83 733e
00000200: dca6 8dbd d153 3b3e 223a 2dbe 1229 073d
00000210: 0a4c 1e3e 7291 da3d e621 77bb 2af0 40be
00000220: 54e0 b9bd 2be2 b63d 31db 14bd b130 6e3c
00000230: 89d3 5dbd 3ca4 463e 3be6 353d 0650 f2bd
00000240: 064c fbbd 8416 4eba dbd3 1b3d 2d51 a9bd
00000250: e21f c8bd ffda 3dbe d9f9 503e 71a2 93bc
00000260: b7af 3a3e ab70 823c c679 5fbe 147c 163e
00000270: ccdd 66bd 469e 7a3d de92 cdb9 cf88 eb3d
00000280: a843 033e 043f 803a fa7a 8dbd 2235 42be
00000290: e440 81bc c12e 07be 0d43 743d 0e96 603c
000002a0: 8b18 5abd 15db 3cbe a077 04be 715a 2fbe
000002b0: c43e b1bc e1bd 8b3d 0779 0f3e c8d0 48bd
000002c0: efb4 c0bc 0193 b3bd 45f2 aebd 3c8e 04bd
000002d0: 4d0b 8fbd bbff 0fbd 5557 1b3e 596b 393c
000002e0: e5e4 1ebd d658 823d 2e20 4a3e 0f85 09be
000002f0: 467f 193d 26c3 e73a d275 8c3d bc66 723d
00000300: 754f 23bd 0b65 1b3e 5581 95bc d311 063e
00000310: 3278 d8bd 2782 9ebd 6183 833d 4907 503e
00000320: dd43 8dbd 56ce d23d 76c5 283e b6b2 8e3d
00000330: a9c1 143e c651 fc3d 873b 113d 1251 e0bd
00000340: 8374 863d 6f21 edbd 7641 573d 7ef0 38bd
00000350: 9707 813d f997 863d fb8d 32be 57e6 4abd
00000360: 1d4c 8a3d a171 9cbd 4f6e d73b 9994 41bd
00000370: 50cf d33d fd9b 57bd 25fd c43d 7eb3 1fbe
00000380: b1e3 01be 3b92 e13c c16e 27bd f8c7 96bd
00000390: 3d6d 9bbd f7bc 92bd 97bf 67bc 881c 36be
000003a0: 1499 213d 14f1 c43d 8793 523d deb4 4c3e
000003b0: 1f67 c8bd 6d54 49bc 9b96 733d 3a0b 2ebe
000003c0: 8921 0fbe c27f c1bd 91df 323c 9a35 adbd
000003d0: e964 babd a73c 303d f901 d43c efb2 d3bd
000003e0: e1c5 6e3d c1fc be3d c4e6 bfbd 53d2 47bb
000003f0: d032 c53d 1618 1dbe a1d4 5c3d 5b2d 6abc

lin3.bias f4 [100]
-0.063504145 0.072491616 -0.020056449 0.06867889 0.022563986 0.024543244 -0.09574096 0.03414856
0.0035047957 0.08165238 -0.026569853 -0.024058694 -0.043177478 -0.08455173 -0.06036323 0.08485037
0.053674176 0.006146171 0.006636556 -0.0074146166 -0.06556319 0.0622765 0.008796907 0.07762225
-0.040796734 -0.054279305 -0.04957339 -0.076168045 -0.08574729 0.033798747 0.061532512 0.06207045
0.02247263 0.060017686 -0.06138467 -0.06558983 -0.034772847 -0.0739101 0.0411216 -0.07850385
0.096038364 0.10428557 -0.027423492 -0.10202106 -0.028320117 -0.088846296 -0.10133312 -0.05503795
0.07971704 0.058071315 0.037140638 -0.008244762 0.09696958 0.079425156 -0.04751833 0.01769938
0.053172164 -0.039910335 0.065552175 -0.08616835 0.09929928 -0.03996677 0.01620027 -0.018054038
0.07565877 -0.015675606 -0.020401005 -0.0015030537 -0.026353665 -0.0505366 0.029049441 -0.096029714
0.028896157 -0.01192687 -0.013955668 -0.059603766 0.08948967 0.05719075 -0.04399282 -0.050000243
-0.009549405 -0.056660574 -0.029855026 0.033550832 0.04128476 -0.028897403 -0.0072068693 0.09078127
0.046159167 0.09000782 -0.01972696 0.02032963 -0.005185122 -0.03016066 0.016433332 -0.06469373
0.07050515 0.072471306 0.03090847 -0.0321694
00000000: 760e 82bd 7c76 943d 6c4d a4bc 85a7 8c3d
00000010: 1cd8 b83c ea0e c93c d613 c4bd 5cdf 0b3d
00000020: b7b0 653b 5d39 a73d 05a9 d9bc bd16 c5bc
00000030: deda 30bd 7529 adbd 6f3f 77bd 08c6 ad3d
00000040: 74d9 5b3d d265 c93b 7777 d93b 50f6 f2bb
00000050: fe45 86bd a515 7f3d e720 103c 6af8 9e3d
00000060: 7a1a 27bd fa53 5ebd 780d 4bbd fefd 9bbd
00000070: 469c afbd 8e70 0a3d 8409 7c3d 963d 7e3d
00000080: 8518 b83c 1bd5 753d 7e6e 7bbd f653 86bd
00000090: f96d 0ebd 2e5e 97bd 1f6f 283d a0c6 a0bd
000000a0: c3af c43d ac93 d53d 3ba7 e0bc 6bf0 d0bd
000000b0: 97ff e7bc 0cf5 b5bd bd87 cfbd 796f 61bd
000000c0: b042 a33d 30dc 6d3d c820 183d 0a15 07bc
000000d0: fd97 c63d a8a9 a23d 95a2 42bd 4afe 903c
000000e0: 0ecb 593d 0579 23bd 3840 863d 0879 b0bd
000000f0: 6c5d cb3d 32b4 23bd 6eb6 843c 10e6 93bc
00000100: fcf2 9a3d 216a 80bc 0220 a7bc 1d02 c5ba
00000110: a4e3 d7bc 77ff 4ebd 18f9 ed3c 3aab c4bd
00000120: a2b7 ec3c eb68 43bc 50a6 64bc 1423 74bd
00000130: 5c46 b73d d940 6a3d d131 34bd 0ecd 4cbd
00000140: 1c75 1cbc eb14 68bd 8792 f4bc 996c 093d
00000150: 351a 293d 3fba ecbc 9a27 ecbb 88eb b93d
00000160: 6511 3d3d 0556 b83d 6f9a a1bc 538a a63c
00000170: f5e7 a9bb 7d13 f7bc 329f 863c 257e 84bd
00000180: 0165 903d d66b 943d c233 fd3c 10c4 03bd

lin4.weight f4 [100, 100]
-0.07118538 0.1402773 0.013428671 -0.16627796 0.110190876 0.16909507 -0.08302618 -0.040716115
0.029677916 0.0400418 0.020447988 -0.07037205 0.16689087 0.098384365 0.02944796 -0.023208426
-0.09254651 -0.13750431 -0.09314255 0.107179016 0.0019776032 -0.028663289 -0.06543482 0.10045279
0.005505639 0.11197898 -0.030589543 -0.12833726 0.112905554 0.058764976 0.119778246 0.009644522
0.022869507 0.04295884 0.14323162 0.14860536 -0.022209922 -0.023219135 -0.040478084 0.035567615
0.03774603 -0.12931018 0.029655054 0.032534666 0.026058841 -0.0014441325 0.05512127 0.06854743
0.1581328 0.11912851 0.18962677 0.111479685 0.02669165 -0.048922293 -0.1523805 -0.008210882
0.10077651 -0.08396979 0.10786913 -0.0060968674 -0.042508285 -0.057455387 0.02325943 -0.18092987
0.06438089 -0.08966037 0.03759669 0.0077987835 0.10654639 -0.0020938995 0.19526243 0.06663436
0.005647117 -0.071655266 -0.12334122 0.0909622 -0.0033202514 0.0088655595 0.08699471 -0.24528693
-0.026559036 0.18082078 0.28092882 0.03956837 -0.085913144 0.05170965 -0.049581975 -0.13082883
0.019376801 -0.06419331 0.019040152 0.1319342 0.090619996 0.043327503 -0.0071346355 0.13014086
-0.0951652 0.11411367 -0.00021729467 0.13482797 0.2655944 -0.16096093 0.041016746 -0.027255982
0.039716277 -0.12811106 0.08075588 0.18488175 0.026688036 -0.11210559 -0.09496308 0.0743941
0.1410174 0.0025573883 0.0109323235 0.077610895 0.022755973 -0.08521136 0.13246866 -0.0958254
0.11869856 0.114620045 -0.015867153 -0.10033925 -0.15108293 -0.021641964 -0.088475354 -0.0046619563
0.007902399 -0.016969208 0.14630912 0.11399076 -0.084044635 0.0011449772 -0.09332225 0.06268486
-0.058411177 0.0031871095 0.08049592 -0.011636174 -0.07172588 -0.06347913 -4.182091e-05 -0.22424221
0.24335626 0.03270356 0.0717008 0.13851799 -0.0047909003 0.07352208 -0.03747008 0.22610687
0.045770813 -0.045014374 0.06008549 0.09617818 0.081919126 -0.19324185 0.11554588 -0.02818723
0.02712062 -0.03975588 0.039068684 -0.014794188 -0.0028635205 -0.14740063 0.23616804 -0.031200508
-0.2809249 0.028806997 -0.08302623 -0.09686824 -0.15590495 0.06791431 -0.21696946 0.04748401
0.0269234 0.056495972 -0.13849698 -0.22816966 0.20043083 0.055278137 0.14129737 0.10218767
0.09327865 0.063417174 0.027008297 -0.013499248 0.049865894 0.05973744 -0.12353835 0.10432022
-0.022560183 -0.16478121 0.15708941 0.064909525 0.025754113 0.11188582 -0.004714159 -0.14095786
-0.03411637 -0.086107805 0.2613262 0.046722576 -0.08224343 -0.20243177 0.1041883 -0.033140257
-0.07336691 0.23479912 -0.13493313 -0.0321125 -0.0916238 -0.0010065412 -0.10650102 0.14973433
0.108665265 0.060782894 -0.057025988 -0.058511768 0.060837135 0.09528297 -0.11854613 0.1283395
0.0554918 -0.07679845 0.15983047 -0.10384531 0.06733864 -0.10563155 0.0112646185 -0.31865448
-0.16689909 -0.12825236 -0.07332351 0.13796689 -0.030036848 0.039346088 -0.05172068 -0.10811568
0.07816941 -0.07715388 -0.04090353 -0.008308324 0.00039448997 -0.07225405 0.084287554 -0.13287938
-0.041259114 0.06318302 -0.15823324 -0.06360607 0.20590256 0.07000488 -0.23830667 0.07596225
00000000: a4c9 91bd daa4 0f3e ee03 5c3c c544 2abe
00000010: c1ab e13d 4227 2d3e a109 aabd f1c5 26bd
00000020: 1a1f f33c df02 243d 8a82 a73c 391f 90bd
00000030: 71e5 2a3e be7d c93d d93c f13c 991f bebc
00000040: 0689 bdbd eecd 0cbe 85c1 bebd ac80 db3d
00000050: ad9a 013b 46cf eabc b102 86bd 31ba cd3d
00000060: a668 b43b 3c55 e53d ec96 fabc d86a 03be
00000070: 073b e73d 8bb3 703d 4c4e f53d 0f04 1e3c
00000080: d558 bb3c 9cf5 2f3d 4fab 123e 012c 183e
00000090: 95f1 b5bc 0e36 bebc 59cc 25bd 59af 113d
000000a0: 959b 1a3d e369 04be 28ef f23c 1243 053d
000000b0: 5a79 d53c 0c49 bdba d7c6 613d 9862 8c3d
000000c0: 91ed 213e a6f9 f33d 852d 423e 764f e43d
000000d0: 72a8 da3c be62 48bd a209 1cbe ef86 06bc
000000e0: ea63 ce3d 5af8 abbd 7eea dc3d 3bc8 c7bb
000000f0: 2b1d 2ebd 5756 6bbd 8f8a be3c ae45 39be
00000100: 21da 833d db9f b7bd fdfe 193d f08c ff3b
00000110: fe34 da3d ce39 09bb e0f2 473e 9877 883d
00000120: 730b b93b ffbf 92bd 529a fcbd 644a ba3d
00000130: 9398 59bb da40 113c 482a b23d 7f2c 7bbe
00000140: 5692 d9bc 1529 393e e7d5 8f3e 7112 223d
00000150: 3bf3 afbd 7fcd 533d 7816 4bbd fef7 05be
00000160: 19bc 9e3c c877 83bd 18fa 9b3c c219 073e
00000170: fa96 b93d 2e78 313d a9c9 e9bb a543 053e
00000180: f9e5 c2bd 6eb4 e93d 98d9 63b9 5810 0a3e
00000190: fdfb 873e f1d2 24be 2d01 283d f047 dfbc
000001a0: 89ad 223d 8c2f 03be 5763 a53d a451 3d3e
000001b0: dea0 da3c 9e97 e5bd 017c c2bd ef5b 983d
000001c0: de66 103e db99 273b 7d1d 333c 76f2 9e3d
000001d0: bc6a ba3c 4b83 aebd dda5 073e 1b40 c4bd
000001e0: 3b18 f33d eabd ea3d d5fb 81bc aa7e cdbd
000001f0: 7cb5 1abe 7d4a b1bc 9132 b5bd 53c3 98bb
00000200: 1079 013c 0203 8bbc 0fd2 153e fd73 e93d
00000210: 981f acbd 0f13 963a bc1f bfbd eb60 803d
00000220: 8f40 6fbd d3de 503b 0bdb a43d a7a5 3ebc
00000230: 05e5 92bd 5901 82bd dc68 2fb8 c09f 65be
00000240: 6232 793e 2bf4 053d ded7 923d a9d7 0d3e
00000250: fcfc 9cbb bf92 963d 3a7a 19bd 8f88 673e
00000260: 2d7a 3b3d fe60 38bd 341c 763d 11f9 c43d
00000270: 37c5 a73d 31e1 45be 51a3 ec3d e8e8 e6bc
00000280: 102c de3c 10d7 22bd 7c06 203d 5263 72bc
00000290: e7a9 3bbb 31f0 16be 09d6 713e 3598 ffbc
000002a0: 63d5 8fbe a7fc eb3c a809 aabd db62 c6bd
000002b0: 8ca5 1fbe a816 8b3d 3e2d 5ebe 987e 423d
000002c0: 768e dc3c 5268 673d 27d2 0dbe 4fa5 69be
000002d0: bd3d 4d3e 546b 623d 42b0 103e c547 d13d
000002e0: e008 bf3d dde0 813d 8140 dd3c f32b 5dbc
000002f0: 2e40 4c3d 3faf 743d ad01 fdbd d7a5 d53d
00000300: 22d0 b8bc 68bc 28be 0cdc 203e 49ef 843d
00000310: 4afa d23c 6524 e53d 3b79 9abb 4257 10be
00000320: 9bbd 0bbd 4a59 b0bd 8ccc 853e 2c60 3f3d
00000330: 3e6f a8bd 464a 4fbe ad60 d53d 14be 07bd
00000340: 6441 96bd 2e6f 703e e92b 0abe 6688 03bd
00000350: 42a5 bbbd ebed 83ba 351d dabd f553 193e
00000360: e58b de3d 7cf7 783d 1594 69bd 09aa 6fbd
00000370: 5c30 793d b823 c33d 50c8 f2bd 6e6b 033e
00000380: 5f4b 633d 8148 9dbd 99aa 233e daac d4bd
00000390: d7e8 893d 5b55 d8bd 3c8f 383c ae26 a3be
000003a0: 98e7 2abe 9654 03be a32a 96bd 3147 0d3e
000003b0: d60f f6bc 5d29 213d 10d9 53bd c16b ddbd
000003c0: 4917 a03d da02 9ebd 768a 27bd a31f 08bc
000003d0: 8cd3 ce39 eef9 93bd f49e ac3d 8811 08be
000003e0: 51ff 28bd 1966 813d e507 22be e643 82bd
000003f0: 1fd8 523e b85e 8f3d aa06 74be 1992 9b3d

lin4.bias f4 [100]
-0.008341121 0.05020686 0.0044832737 -0.0042225416 -0.08969864 0.00074585 0.026709372 0.042881686
-0.07717755 -0.056538064 -0.038948618 0.042856723 0.0786538 0.11046195 0.040947434 0.02920136
-0.027167737 0.064197995 0.035531536 0.060019497 -0.026802368 0.074252255 -0.010885353 -0.0068882857
-0.02355359 -0.08731103 -0.07690271 -0.074402384 0.061375372 0.03135203 0.04929612 -0.080543265
-0.027900726 0.04596793 -0.01808788 0.023099378 0.012638312 -0.0045541474 -0.07426348 0.046981253
-0.058790043 0.09147863 -0.095396586 -0.03952734 -0.04050814 -0.07059018 0.034287084 -0.033337187
0.029327827 0.085268766 -0.09885171 -0.005878348 0.040956985 -0.021214219 -0.075587116 0.039309345
-0.08104829 0.08698918 0.019643221 0.10008752 0.058766667 -0.061147355 -0.017072584 0.05187197
0.052130103 -0.10275742 -0.051332533 -0.033583853 -0.07223018 -0.10530957 0.048073966 0.090136476
-0.094764575 -0.01615958 -0.019185524 0.057805546 -0.047751028 0.012555457 -0.03566608 0.0672262
-0.004607327 -0.03676732 0.01613001 0.045252122 -0.028506348 -0.0032648405 -0.010698817 -0.0554264
-0.065755755 -0.05338968 -0.0789843 -0.08157106 0.0090002725 0.023982264 -0.057717957 0.0769532
-0.019285467 -0.08118693 0.04282324 0.10508094
00000000: 32a9 08bc b5a5 4d3d 6de8 923b 3f5d 8abb
00000010: ecb3 b7bd 2585 433a 9dcd da3c b5a4 2f3d
00000020: 430f 9ebd 7594 67bd 9688 1fbd 888a 2f3d
00000030: 3e15 a13d e039 e23d 7fb8 273d b137 ef3c
00000040: e08e debc 3d7a 833d 8489 113d 01d7 753d
00000050: a490 dbbc 9111 983d 7b58 32bc 21b7 e1bb
00000060: 75f3 c0bc 20d0 b2bd 2b7f 9dbd 4760 98bd
00000070: be64 7b3d fc6a 003d baea 493d def3 a4bd
00000080: 1090 e4bc de48 3c3d 092d 94bc e83a bd3c
00000090: ec10 4f3c f53a 95bb 7417 98bd 6a6f 403d
000000a0: d4cd 70bd 2659 bb3d 495f c3bd 6ce7 21bd
000000b0: ddeb 25bd 9691 90bd 9d70 0c3d 938c 08bd
000000c0: e940 f03c 64a1 ae3d c472 cabd 289f c0bb
000000d0: 83c2 273d 71c9 adbc 6bcd 9abd d602 213d
000000e0: a5fc a5bd 6227 b23d d2ea a03c b0fa cc3d
000000f0: 51b5 703d a675 7abd cedb 8bbc b477 543d
00000100: 6086 553d 7b72 d2bd 1042 52bd 398f 09bd
00000110: 6bed 93bd 8bac d7bd 35e9 443d 7999 b83d
00000120: ee13 c2bd 1861 84bc f62a 9dbc 82c5 6c3d
00000130: 9596 43bd 67b5 4d3c 9816 12bd e4ad 893d
00000140: 0ff9 96bb 5499 16bd 1523 843c 4a5a 393d
00000150: 2586 e9bc eff6 55bb 174a 2fbc cb06 63bd
00000160: f4aa 86bd 23af 5abd 85c2 a1bd ba0e a7bd
00000170: e175 133c 7476 c43c aa69 6cbd a499 9d3d
00000180: 8efc 9dbc 5545 a6bd 6c67 2f3d ad34 d73d

lin5.weight f4 [100, 100]
-0.10739874 0.034939855 -0.12351023 0.086162604 0.115507334 -0.07487301 -0.11434137 -0.018274264
-0.012784423 -0.10564569 0.16404517 0.0073470287 -0.13699958 0.1476082 -0.0069749653 0.12619655
0.016413994 0.05180092 0.1309812 -0.15802322 -0.005087003 0.011686172 0.045739386 -0.10561042
-0.15743844 0.069393665 0.07304323 0.08359611 -0.021329597 0.00843702 -0.02360731 -0.10303783
0.034106486 0.14974602 0.020212308 -0.07304518 -0.02552832 -0.12069607 0.013945707 0.012327754
0.03203939 0.14573495 -0.1576434 0.20811173 0.05704333 0.0002250039 0.21802989 0.08467695
-0.0497501 0.009758585 -0.03345037 -0.06840729 -0.1295062 0.03955191 0.022643965 0.092849225
0.0063254745 -0.103408314 0.012261287 0.113138445 0.003591769 -0.08547782 -0.11899898 -0.2070044
0.030044684 0.21033227 0.0291738 -0.11124468 -0.011809411 0.032539904 0.20248061 -0.028009927
-0.22948845 0.0498072 0.008694561 -0.0400398 0.07345728 -0.11947978 0.07228883 0.015350064
0.022912154 0.015258132 -0.12945457 0.27338526 0.042981718 -0.0092297895 0.11329286 -0.09945387
-0.14049849 0.024928972 0.077736646 -0.010500604 -0.005830622 0.013518747 0.06851739 0.027607266
0.16265091 0.06911328 -0.072608694 0.037589468 0.08820302 0.021175703 0.18326361 0.0435994
-0.16142221 0.18116423 -0.053984053 0.017646939 -0.08437995 -0.1195677 0.12198692 0.09910516
0.019222641 -0.0846454 -0.15687267 0.0017977414 -0.031112755 0.12639403 -0.060635984 -0.2689478
-0.038516205 -0.046517566 0.13179408 -0.03943066 -0.1498666 -0.01095115 -0.033691913 -0.17801616
-0.0070602917 0.041896712 0.034442414 0.0183197 -0.20687813 -0.008979365 0.03658673 -0.016463563
-0.06835812 0.13820481 0.047330882 0.15897064 -0.06526473 0.13843668 0.021955911 -0.13319506
0.042166565 -0.034687813 0.020186283 0.057971515 0.049529523 -0.03491966 0.19613425 -0.116538525
-0.07607514 -0.031871945 0.01870798 -0.09052703 -0.038344484 -0.08946371 -0.029275084 0.100014694
-0.07498184 0.08861216 -0.24833639 -0.19726221 0.025759362 -0.07786331 -0.14742738 0.16140579
0.1211905 0.010308638 -0.14385352 -0.12949306 -0.07873231 -0.021780046 0.13222621 -0.00810714
-0.017180508 -0.17849374 0.057525963 0.17265035 0.057687927 0.050364457 0.0130531555 0.018117558
0.05618774 0.18442878 -0.02692835 0.03606073 0.14769205 -0.12623505 -0.17607361 0.03680577
-0.085590385 -0.05271411 -0.08482437 -0.014216548 0.07986927 0.0066506555 0.17184356 -0.14060226
0.12446497 2.4749409e-06 -0.010107176 0.018915517 -0.15784848 0.06882066 -0.1161137 0.020988783
-0.17347015 0.065493405 -0.20972613 0.14098693 -0.18622424 -0.058095444 -0.08834023 -0.11579061
0.22326855 0.014706681 -0.031769563 0.017206093 0.11754381 -0.07220919 0.043019623 0.07951685
0.047619592 0.07808197 -0.063808315 0.118491165 0.10304133 0.025426978 0.13085276 0.17460538
-0.024553092 0.12024378 0.11430428 0.094868444 0.049408983 0.060517367 -0.0888357 0.010793461
0.006767214 0.08001386 0.02782221 0.015229885 0.061152987 -0.097792186 0.020945031 -0.0008727685
0.026148463 -0.23210597 0.0006665006 0.13197868 0.033464685 -0.007423438 0.016968206 -0.02452111
00000000: dff3 dbbd 181d 0f3d eef2 fcbd 0576 b03d
00000010: 1c8f ec3d 0557 99bd cf2b eabd e9b3 95bc
00000020: c275 51bc c45c d8bd 75fb 273e 58bf f03b
00000030: 9e49 0cbe 9b26 173e 408e e4bb ab39 013e
00000040: a476 863c 342d 543d f01f 063e d7d0 21be
00000050: e0b0 a6bb 5c77 3f3c 3959 3b3d 474a d8bd
00000060: 8b37 21be 441e 8e3d b097 953d 7034 ab3d
00000070: 68bb aebc 6d3b 0a3c 1e64 c1bc 7f05 d3bd
00000080: 3eb3 0b3d 0557 193e 4894 a53c b698 95bd
00000090: c420 d1bc 802f f7bd 897c 643c 59fa 493c
000000a0: bc3b 033d 8b3b 153e 456d 21be 3e1b 553e
000000b0: 44a6 693d 06ef 6b39 3a43 5f3e 1c6b ad3d
000000c0: c3c6 4bbd 79e2 1f3c 4103 09bd 1f19 8cbd
000000d0: 469d 04be 2f01 223d d67f b93c bc27 be3d
000000e0: ed45 cf3b bdc7 d3bd 91e3 483c 21b5 e73d
000000f0: e263 6b3b ff0e afbd bdb5 f3bd f6f8 53be
00000100: 4520 f63c 5861 573e e5fd ee3c 40d4 e3bd
00000110: 437c 41bc 9048 053d 1457 4f3e 1375 e5bc
00000120: 05ff 6abe a202 4c3d a273 0e3c c600 24bd
00000130: c570 963d d1b1 f4bd 2b0c 943d d67e 7b3c
00000140: 45b2 bb3c 3efd 793c bd8f 04be 27f9 8b3e
00000150: 990d 303d 8b38 17bc 1606 e83d 78ae cbbd
00000160: d6de 0fbe d837 cc3c 6434 9f3d ba0a 2cbc
00000170: cd0e bfbb bc7d 5d3c d852 8c3d a228 e23c
00000180: f68d 263e 438b 8d3d deb3 94bd 6af7 193d
00000190: c9a3 b43d ab78 ad3c 75a9 3b3e 4995 323d
000001a0: dd4b 25be 1e83 393e 621e 5dbd 5090 903c
000001b0: 65cf acbd e9df f4bd 47d4 f93d a5f7 ca3d
000001c0: cd78 9d3c 915a adbd 3ba3 20be 31a2 eb3a
000001d0: 2de0 febc 706d 013e 705d 78bd 87b3 89be
000001e0: 2bc3 1dbd 3489 3ebd 07f5 063e 0b82 21bd
000001f0: a176 19be 746c 33bc 8800 0abd de49 36be
00000200: 055a e7bb e39b 2b3d 7d13 0d3d 3213 963c
00000210: dcd7 53be 301e 13bc f8db 153d 98de 86bc
00000220: 58ff 8bbd 9085 0d3e 07de 413d 33c9 223e
00000230: 84a9 85bd 58c2 0d3e e2dc b33c 4964 08be
00000240: d9b6 2c3d cf14 0ebd b45d a53c 8a73 6d3d
00000250: 78df 4a3d eb07 0fbd 6bd7 483e c0ab eebd
00000260: 48cd 9bbd 288c 02bd 7a41 993c 3c66 b9bd
00000270: 1b0f 1dbd c038 b7bd 4dd2 efbc 81d4 cc3d
00000280: 1490 99bd 4b7a b53d e54b 7ebe 1bff 49be
00000290: 4c05 d33c cd76 9fbd 34f7 16be 8f47 253e
000002a0: ba32 f83d 90e5 283c 564e 13be d499 04be
000002b0: 683e a1bd 116c b2bc 4f66 073e cfd3 04bc
000002c0: 23be 8cbc 10c7 36be 58a0 6b3d 41cb 303e
000002d0: 2d4a 6c3d f64a 4e3d e7dc 553c 466b 943c
000002e0: 1e25 663d e6da 3c3e d898 dcbc 6bb4 133d
000002f0: 963c 173e c343 01be a44c 34be a6c1 163d
00000300: 034a afbd c0ea 57bd 66b8 adbd 86ec 68bc
00000310: 8092 a33d beed d93b c2f7 2f3e 0afa 0fbe
00000320: 7de7 fe3d 2917 2636 9298 25bc b7f4 9a3c
00000330: 08a3 21be d9f1 8c3d 05cd edbd abf0 ab3c
00000340: 29a2 31be 6821 863d 72c2 56be e15e 103e
00000350: 91b1 3ebe 7df5 6dbd b9eb b4bd a123 edbd
00000360: 83a0 643e 4af4 703c cd20 02bd cbf3 8c3c
00000370: cfba f03d 69e2 93bd 5835 303d bbd9 a23d
00000380: c30c 433d 71e9 9f3d efad 82bd 7fab f23d
00000390: 5507 d33d 3d4c d03c 44fe 053e c1cb 323e
000003a0: 9123 c9bc 5f42 f63d 5d18 ea3d 634a c23d
000003b0: 1361 4a3d 0fe1 773d 7eef b5bd 0fd7 303c
000003c0: 81bf dd3b 4ede a33d 67eb e33c c486 793c
000003d0: 8e7b 7a3d 4547 c8bd ea94 ab3c 81ca 64ba
000003e0: 4d35 d63c 30ad 6dbe 19b8 2e3a 6b25 073e
000003f0: 4412 093d 5040 f3bb e800 8b3c 7fe0 c8bc

lin5.bias f4 [100]
0.02202931 -0.08389102 0.042335294 0.08297733 0.0587306 0.045646727 0.078864604 -0.081470266
0.06375378 0.05344994 0.025891537 0.07149154 0.003512463 -0.05712632 -0.0055638156 0.021027178
-0.07023687 0.05642232 -0.03129452 0.08648671 0.08232237 -0.037147384 0.08208395 -0.06062247
0.00060523045 0.012258677 -0.0606083 -0.019415021 0.016301986 0.048848715 -0.006901964 -0.0085870465
0.043504268 0.011152053 -0.015605326 -0.019465312 0.05916613 0.10213529 -0.046320926 -0.07016016
0.08714085 -0.07946967 -0.014723324 -0.0902362 -0.05865725 0.06302667 0.077810004 0.0059365914
0.017909393 -0.031423014 -0.031550653 0.0006412 0.07462743 0.07229518 -0.020920655 -0.035681214
0.024457738 0.0018942528 0.048592232 0.082561955 0.09162286 0.0045022555 -0.014893699 0.078866415
-0.009972829 -0.061279334 0.069981046 0.052228097 -0.022764882 -0.06393553 -0.04992786 -0.055089023
-0.093433715 0.0073974067 0.0057703587 -0.012256972 -0.012031602 0.09436342 -0.036080934 -0.0720101
-0.010038684 0.04344311 0.08258077 0.013674705 0.0020128228 0.09634325 -0.02793551 -0.04371084
-0.0025967534 0.05191507 0.0330193 0.031448282 -0.058819927 -0.01405821 -0.01907134 -0.021381086
-0.020837283 -0.053109504 -0.09676585 -0.06789776
00000000: d076 b43c 0ecf abbd c667 2d3d 05f0 a93d
00000010: 7f8f 703d 10f8 3a3d c483 a13d e2d9 a6bd
00000020: 5891 823d 53ee 5a3d 7d1a d43c 286a 923d
00000030: 5a31 663b 4afd 69bd ab50 b6bb 3041 ac3c
00000040: 59d8 8fbd 171b 673d af2e 00bd f21f b13d
00000050: a198 a83d db27 18bd a11b a83d 444f 78bd
00000060: 54a8 1e3a 9ed8 483c 6940 78bd 400c 9fbc
00000070: be8b 853c 9715 483d df29 e2bb afb0 0cbc
00000080: 8831 323d 1ab7 363c 7bad 7fbc b875 9fbc
00000090: 2f58 723d 4f2c d13d 03bb 3dbd 21b0 8fbd
000000a0: e776 b23d ffc0 a2bd 193a 71bc c2cd b8bd
000000b0: 9642 70bd 2014 813d da5a 9f3d bd87 c23b
000000c0: b8b6 923c 6bb5 00bd 423b 01bd 3416 283a
000000d0: 44d6 983d 7f0f 943d cb61 abbc 7726 12bd
000000e0: 985b c83c 9448 f83a a608 473d 3e16 a93d
000000f0: c4a4 bb3d a887 933b b404 74bc b784 a13d
00000100: 1465 23bc 0a00 7bbd 3952 8f3d 21ed 553d
00000110: 6b7d babc a2f0 82bd 2881 4cbd 07a5 61bd
00000120: 2d5a bfbd f265 f23b 4715 bd3b 77d1 48bc
00000130: 3220 45bc 9c41 c13d 9ac9 13bd 087a 93bd
00000140: 4b79 24bc 67f1 313d 1b20 a93d df0b 603c
00000150: 90e9 033b 9c4f c53d 03d9 e4bc 230a 33bd
00000160: 4b2e 2abb e5a4 543d 3f3f 073d eacf 003d
00000170: 2aed 70bd 6854 66bc 803b 9cbc 6327 afbc
00000180: f3b2 aabc 5a89 59bd 2d2d c6bd fb0d 8bbd

lin6.weight f4 [100, 100]
-0.112938106 -0.17452483 -0.14229867 -0.018081859 0.14069061 0.12683569 0.009161088 -0.13167275
-0.008804662 0.1257562 -0.08843995 0.13999383 0.06683882 0.16810748 -0.031486936 0.24763495
0.109688416 0.025414273 0.22886063 0.17033267 -0.15268381 -0.13241649 0.0821085 -0.17931394
-0.06937731 -0.09657436 0.16930091 -0.075158544 -0.0314751 -0.11850475 -0.024037378 -0.06356103
0.06112343 -0.033361904 -0.013138615 -0.058748 0.09181781 0.050690286 0.011946737 -0.15280287
0.14013793 0.05033711 -0.115147695 0.05582236 0.124587595 -0.0308178 -0.055448372 -0.021054553
0.14869979 -0.15192907 0.17864928 0.02436766 0.026462456 0.09243962 -0.045285463 -0.23108855
0.022123262 0.048558794 -0.05157805 0.06375007 -0.040705126 0.1891896 0.0033077437 -0.14049378
-0.024000661 0.05279441 -0.038191445 -0.017899163 -0.1280045 -0.17271125 -0.003333679 0.17190197
-0.095452264 0.032003015 -0.06964029 0.09528401 -0.015398599 -0.09570621 -0.049383488 0.070313625
-0.18856746 -0.15457991 0.1541116 0.062284563 -0.0049227797 0.10191856 -0.10238557 -0.069094405
-0.0024925224 -0.11882843 -0.07884228 -0.17214413 0.049876112 -0.07829583 0.14454053 0.11624877
0.045253545 -0.14768064 0.09417564 -0.0397161 0.00368201 -0.024165422 -0.06469897 -0.10488557
-0.0975782 0.19452696 -0.05827512 0.17779817 0.07182535 -0.07045766 -0.023283644 0.09062784
-0.056310657 0.13379093 -0.043919146 0.0617854 -0.17661652 -0.0020483378 0.09260308 -0.024877368
-0.020782363 -0.17655471 0.10650256 -0.07360625 -0.058824737 -0.009420986 -0.117063 -0.08331545
-0.068180494 0.049066834 0.2101983 -0.048760492 0.010366915 0.000706119 -0.050227422 0.07629799
0.18680832 0.020473469 -0.100653484 -0.30371425 0.08798856 0.22013457 -0.058554906 0.16906062
-0.02044323 -0.0538293 -0.0966891 0.023934206 -0.17775701 -0.14573927 0.1628121 -0.23181629
0.19646442 0.15728474 -0.15382421 -0.1409247 -0.10609133 0.08855048 -0.11721959 0.027241912
-0.016001744 0.054026652 -0.26643425 -0.1392856 -0.09242553 0.18153256 0.0081356075 -0.005625947
-0.06362221 -0.15141395 0.09563516 0.053666927 -0.054783683 -0.15441382 -0.1870295 -0.30681413
0.19328368 0.07984056 0.08883974 -0.19719517 -0.16156302 -0.0051687304 0.03948495 0.12861143
0.09839425 0.012831361 -0.03404251 0.06366882 -0.12832901 0.05310203 -0.06659095 0.061208088
-4.332032e-05 -0.016676435 0.07040873 -0.073837176 0.09074565 0.019421272 0.13572991 -0.031129412
-0.020649197 -0.14532803 0.044335384 -0.023902545 0.043373037 -0.1427279 0.0888035 -0.03585538
-0.09976036 -0.09148929 0.045071453 0.136323 0.099222966 0.029877124 0.18577366 -0.091750406
-0.07355637 -0.005487867 -0.1544072 0.03762255 0.076546185 0.35903114 -0.028750172 -0.036557414
0.08250491 0.05618667 0.074816495 -0.19269595 0.21887834 0.10514447 0.121586494 -0.04041539
0.17131388 0.1875909 0.013340478 0.1219406 -0.09472623 0.058870558 0.1252742 0.08946423
0.050527304 -0.058237925 -0.027927117 0.091494106 0.100452825 -0.08823928 -0.043100428 -0.108512506
0.0042423108 0.14138125 -0.06544432 -0.04639432 0.0010245497 0.0032514606 -0.054643515 -0.00022330967
00000000: 184c e7bd a3b6 32be beb6 11be 6820 94bc
00000010: 3311 103e 37e1 013e 6318 163c 39d5 06be
00000020: 6e41 10bc 3cc6 003e 0120 b5bd 8b5a 0f3e
00000030: cbe2 883d 5e24 2c3e 72f8 00bd 0494 7d3e
00000040: 52a4 e03d 9831 d03c 715a 6a3e b06b 2e3e
00000050: 2559 1cbe 3098 07be 8028 a83d 139e 37be
00000060: b115 8ebd c7c8 c5bd 385d 2d3e b9ec 99bd
00000070: 09ec 00bd 9eb2 f2bd 09ea c4bc 492c 82bd
00000080: 905c 7a3d 7ea6 08bd 5843 57bc bea1 70bd
00000090: fa0a bc3d 9ea0 4f3d 3fbc 433c 5b78 1cbe
000000a0: 5180 0f3e 492e 4e3d 8ed2 ebbd fda5 643d
000000b0: c827 ff3d 9c75 fcbc d51d 63bd 997a acbc
000000c0: c244 183e 4b93 1bbe d6ef 363e b09e c73c
000000d0: cbc7 d83c fc50 bd3d 407d 39bd 7aa2 6cbe
000000e0: d83b b53c 96e5 463d 8143 53bd 668f 823d
000000f0: 6bba 26bd ebba 413e bbc6 583b 9add 0fbe
00000100: 099d c4bc f43e 583d a26e 1cbd 44a1 92bc
00000110: 9d13 03be 38db 30be da79 5abb 1207 303e
00000120: 7a7c c3bd 9815 033d 929f 8ebd 4324 c33d
00000130: 684a 7cbc 9e01 c4bd 5746 4abd 9700 903d
00000140: d417 41be 324a 1ebe 6ecf 1d3e 191e 7f3d
00000150: 454f a1bb aeba d03d 87af d1bd 5e81 8dbd
00000160: 9659 23bb 525c f3bd 1078 a1bd 8d46 30be
00000170: e54a 4c3d 9059 a0bd 6f02 143e d613 ee3d
00000180: c85b 393d 9839 17be 28df c03d 59ad 22bd
00000190: e14d 713b 90f6 c5bc e580 84bd 3fce d6bd
000001a0: 14d7 c7bd 1332 473e e4b1 6ebd b910 363e
000001b0: 2b19 933d 1b4c 90bd 57bd bebc 179b b93d
000001c0: 01a6 66bd 7d00 093e 90e4 33bd b012 7d3d
000001d0: f6da 34be 683d 06bb afa6 bd3d 9fcb cbbc
000001e0: c63f aabc c2ca 34be 041e da3d e0be 96bd
000001f0: 35f2 70bd 7b5a 1abc babe efbd 4aa1 aabd
00000200: 37a2 8bbd 4efa 483d 393e 573e 15b9 47bd
00000210: fed9 293c d81a 393a 45bb 4dbd 1f42 9c3d
00000220: ae4a 3f3e fab7 a73c 6a23 cebd 6f80 9bbe
00000230: 5933 b43d f56a 613e 45d7 6fbd 3a1e 2d3e
00000240: 9078 a7bc 1d7c 5cbd ef04 c6bd ab11 c43c
00000250: ef05 36be ad3c 15be 37b8 263e 4061 6dbe
00000260: f82d 493e 400f 213e 1884 1dbe 914e 10be
00000270: 6946 d9bd f459 b53d d310 f0bd 6e2a df3c
00000280: 1716 83bc 0d4b 5d3d 126a 88be e2a0 0ebe
00000290: 9949 bdbd ace3 393e 364b 053c dd59 b8bb
000002a0: 5c4c 82bd 420c 1bbe 5edc c33d dad1 5b3d
000002b0: db64 60bd a81e 1ebe a984 3fbe be16 9dbe
000002c0: 28ec 453e 7383 a33d 9cf1 b53d 88ed 49be
000002d0: c770 25be 745e a9bb f9ba 213d b7b2 033e
000002e0: ed82 c93d a13a 523c 2970 0bbd cc64 823d
000002f0: ae68 03be 8481 593d d660 88bd 55b5 7a3d
00000300: d7b2 35b8 059d 88bc 7432 903d f237 97bd
00000310: dbd8 b93d 5c19 9f3c c8fc 0a3e 1c03 ffbc
00000320: 8128 a9bc dfd0 14be 0599 353d 45cf c3bc
00000330: eda7 313d 4327 12be 9cde b53d 17dd 12bd
00000340: 294f ccbd bd5e bbbd d89c 383d 4298 0b3e
00000350: 6935 cb3d dfc0 f43c 733b 3e3e a3e7 bbbd
00000360: b9a4 96bd 91d3 b3bb ec1c 1ebe 1a1a 1a3d
00000370: 3fc4 9c3d eed2 b73e 7b85 ebbc 3abd 15bd
00000380: 56f8 a83d fe23 663d 6439 993d 1652 45be
00000390: a521 603e fc55 d73d 5702 f93d 9c8a 25bd
000003a0: e86c 2f3e d417 403e 0592 5a3c febb f93d
000003b0: d3ff c1bd 4122 713d e147 003e 0639 b73d
000003c0: b8f5 4e3d e48a 6ebd 69c7 e4bc 4361 bb3d
000003d0: 36ba cd3d ccb6 b4bd 138a 30bd ce3b debd
000003e0: 1503 8b3b 3fc6 103e ac07 86bd f807 3ebd
000003f0: 2f4a 863a 7516 553b e1d1 5fbd 3c28 6ab9
